model_Xian/el_model.pth (torch, 175990 bytes, 15 tensors)

conv1.weight f4 [31, 1, 1, 31]
-0.00022900029 0.22178696 0.2871916 -0.11149825 0.14250244 0.01744892 0.06100501 -0.12503228
-0.12031029 -0.039578713 -0.009040051 -0.00412601 0.1310736 -0.077850096 0.049382363 -0.20374307
-0.049567275 0.124448836 0.17818274 -0.024654025 0.1563646 0.06903438 0.12606451 0.030565573
0.15819322 0.18331431 -0.060483288 0.040702987 0.17063208 0.08998318 0.22294883 0.008866571
-0.10460359 0.09476073 0.05910844 -0.13545819 -0.25531474 -0.023077728 0.18666121 -0.02405755
-0.24653804 0.0073342184 -0.07738298 -0.15134916 -0.1881093 0.18506804 0.20462543 0.10167572
0.19584732 -0.032793626 0.24492462 -0.13562445 -0.12781362 -0.16643444 -0.18412949 -0.090318315
-0.12640622 0.0803076 0.071021944 -0.06597324 -0.10336076 0.18752258 -0.001639296 -0.14497387
0.2128449 -0.2939695 0.09711565 -0.12258242 0.073601134 0.15075774 -0.103114635 0.20530312
-0.1493153 -0.17894705 -0.09793731 -0.16662706 0.028380997 -0.13848542 -0.09085686 -0.18847987
-0.14303222 -0.19490232 -0.10787575 0.16523524 0.025252622 -0.1289679 -0.0911358 -0.11067427
-0.014094037 -0.11337138 -0.020963758 -0.15015902 0.12103811 -0.025153175 -0.12654936 0.030956427
0.016010378 0.019319039 -0.25267845 -0.011280612 -0.12272731 0.10919936 0.16781907 0.050504074
0.24959502 0.10192277 0.14080834 0.06478351 -0.00026152498 0.24022608 -0.044543877 0.06746119
0.044282854 -0.19184116 0.14580385 0.13428411 0.22085164 0.28467458 0.13260768 0.20359632
0.011023024 -0.01532258 0.100867495 0.057592027 0.028796175 0.14210545 -0.018494958 -0.033457678
0.14643897 0.055958614 -0.220101 0.022500487 0.017668385 0.1912412 -0.1241889 0.2031661
0.21706717 -0.11768584 -0.0011788127 0.024516305 -0.03411179 0.14467086 0.2781247 0.102658115
-0.053766344 -0.046247844 -0.11144395 0.20173316 0.1626084 0.13238616 0.054068957 0.19408621
0.17870142 0.19910266 0.18494204 -0.0011154639 -0.0062523223 -0.0077646445 0.12170759 0.16249657
-0.10528679 0.14046307 -0.11910169 0.06979545 0.124256834 -0.05991492 0.16276705 0.062215608
-0.1860808 0.00893688 0.13095325 0.009545906 0.07798463 0.22736937 0.20770034 0.16911675
-0.01477514 -0.06546128 -0.24734768 -0.21615212 -0.21126215 0.02571559 -0.20561403 0.16942795
0.04312098 0.085281745 0.005385303 0.18150324 0.22163509 -0.13329585 0.2591123 0.07857475
-0.05670043 -0.01587757 0.24162279 -0.08366442 -0.10581262 0.035256077 -0.17384267 -0.24758771
-0.1735793 -0.15895149 0.08344672 -0.00915339 0.14670734 0.21763946 0.22330682 0.013120885
-0.05792088 0.06987061 -0.15901364 -0.116991475 0.07052767 0.0385359 -0.06817832 -0.107651815
0.3235872 0.4266568 -0.016200384 0.1259251 -0.12752743 0.046205297 -0.24136491 -0.035980593
0.018936947 0.26708126 0.09129046 0.032478247 -0.06407204 -0.119825296 -0.06735881 -0.0440174
-0.013137694 0.056266848 -0.11696752 -0.030542009 0.19906397 0.115613185 -0.14970341 0.09789279
-0.1777766 -0.14635047 -0.07050929 0.15288934 0.20245829 -0.06714108 -0.11681419 -0.14634018
0.48568788 0.16161817 0.13950032 -0.2275235 -0.114313215 -0.08938974 0.044665918 -0.16916849
00000000: cc1f 70b9 1f1c 633e c70a 933e 3259 e4bd
00000010: 29ec 113e 0af1 8e3c 64e0 793d 7608 00be
00000020: 3e65 f6bd 4a1d 22bd b91c 14bc 7b33 87bb
00000030: 2838 063e df6f 9fbd 2945 4a3d 06a2 50be
00000040: 0e07 4bbd 08df fe3d 8975 363e 3df7 c9bc
00000050: 0b1e 203e e661 8d3d 0e17 013e a764 fa3c
00000060: 67fd 213e bfb6 3b3e 53bd 77bd 2db8 263d
00000070: 2dba 2e3e 1a49 b83d b34c 643e 1845 113c
00000080: 683a d6bd ea11 c23d b11b 723d 8db5 0abe
00000090: 9db8 82be 810d bdbc 1e24 3f3e 5714 c5bc
000000a0: 7874 7cbe e253 f03b f87a 9ebd 46fb 1abe
000000b0: b99f 40be 7a82 3d3e 5489 513e 5c3b d03d
000000c0: 338c 483e 9c52 06bd 85cd 7a3e 23e1 0abe
000000d0: 93e1 02be ca6d 2abe 718c 3cbe cff8 b8bd
000000e0: a270 01be 5078 a43d f473 913d fa1c 87bd
000000f0: ceae d3bd eb05 403e a5dd d6ba 0874 14be
00000100: 03f4 593e 2c83 96be 92e4 c63d 7e0c fbbd
00000110: 31bc 963d 3d60 1a3e c42d d3bd fb3a 523e
00000120: 1ce6 18be e53d 37be 5b93 c8bd 49a0 2abe
00000130: 447f e83c 1fcf 0dbe 2913 babd de00 41be
00000140: 0a77 12be 7994 47be f6ed dcbd 6d33 293e
00000150: 96de ce3c 2910 04be 68a5 babd 31a9 e2bd
00000160: adea 66bc 412f e8bd 30bc abbc 49c3 19be
00000170: d4e2 f73d 080e cebc 2896 01be 5598 fd3c
00000180: 3228 833c f642 9e3c 125f 81be 51d2 38bc
00000190: 7558 fbbd eaa3 df3d c3d8 2b3e 5cdd 4e3d
000001a0: d695 7f3e e3bc d03d 1030 103e 38ad 843d
000001b0: 4a1d 89b9 d3fd 753e a473 36bd 1829 8a3d
000001c0: f061 353d 0272 44be 9b4d 153e c681 093e
000001d0: ef26 623e dec0 913e 4fca 073e 8e7b 503e
000001e0: ea99 343c 8f0b 7bbc 9e93 ce3d 9ee5 6b3d
000001f0: f5e5 eb3c 1784 113e bd82 97bc eb0a 09bd
00000200: 19f4 153e dc34 653d 2862 61be f152 b83c
00000210: 4abd 903c bcd4 433e c056 febd c60a 503e
00000220: db46 5e3e 4605 f1bd 6482 9aba 6bd6 c83c
00000230: ceb8 0bbd 9924 143e 5c66 8e3e 6b3e d23d
00000240: 193a 5cbd 616e 3dbd ba3c e4bd 2393 4e3e
00000250: d182 263e 3d90 073e 6977 5d3d 89be 463e
00000260: 81fd 363e 91e1 4b3e 7261 3d3e c234 92ba
00000270: 48e0 ccbb 8f6e febb d441 f93d 8065 263e
00000280: 9aa0 d7bd 8dd5 0f3e 96eb f3bd ebf0 8e3d
00000290: 5e7a fe3d 5969 75bd 68ac 263e cbd5 7e3d
000002a0: f78b 3ebe fe6b 123c 9c18 063e 6f66 1c3c
000002b0: 68b6 9f3d 84d3 683e 66af 543e f12c 2d3e
000002c0: 6e13 72bc 9010 86bd b648 7dbe fb56 5dbe
000002d0: 1b55 58be 80a9 d23c 7c8c 52be 857e 2d3e
000002e0: a09f 303d 32a8 ae3d 3277 b03b fcdb 393e
000002f0: 4ff4 623e b57e 08be 5eaa 843e cceb a03d
00000300: b63e 68bd ad11 82bc f76b 773e 4058 abbd
00000310: 49b4 d8bd ad68 103d d003 32be a287 7dbe
00000320: c6be 31be 2ec4 22be 1de6 aa3d 1af8 15bc
00000330: 733a 163e e1dc 5e3e 8baa 643e fbf8 563c
00000340: 723e 6dbd 5318 8f3d 79d4 22be 3a99 efbd
00000350: d070 903d d2d7 1d3d 13a1 8bbd 8e78 dcbd
00000360: 39ad a53e c372 da3e abb6 84bc 82f2 003e
00000370: 8d96 02be c441 3d3d 5d28 77be 6360 13bd
00000380: a821 9b3c e0be 883e 7ef6 ba3d e907 053d
00000390: 3438 83bd f766 f5bd 6af3 89bd 974b 34bd
000003a0: 7c3f 57bc 1178 663d ab8c efbd 3c33 fabc
000003b0: 6dd7 4b3e 9bc6 ec3d da4b 19be 047c c83d
000003c0: 120b 36be e6dc 15be 2d67 90bd 068f 1c3e
000003d0: 3a51 4f3e 4381 89bd 473c efbd 33da 15be
000003e0: 15ac f83e 3c7f 253e 2cd9 0e3e ecfb 68be
000003f0: 0c1d eabd f811 b7bd 9cf3 363d 813a 2dbe

conv1.bias f4 [31]
0.051851794 0.22086746 -0.13557884 -0.15842153 0.03847689 0.14353372 -0.11371485 0.022676228
0.26870465 0.05287191 0.07450902 0.16369285 0.1910327 -0.08927378 0.012219262 0.10292129
0.16938394 -0.15525456 0.05509532 -0.0706906 -0.20953682 0.050255038 -0.08831855 0.039690867
-0.10602526 -0.09960422 -0.015009145 -0.07731086 0.13845587 0.07150221 0.1480297
00000000: 8c62 543d 142b 623e 2ed5 0abe 4139 22be
00000010: f299 1d3d 81fa 123e 55e3 e8bd 7fc3 b93c
00000020: a893 893e 3790 583d 2f98 983d 199f 273e
00000030: 139e 433e 2cd5 b6bd 4d33 483c 66c8 d23d
00000040: fc72 2d3e 0dfb 1ebe a1ab 613d 3cc6 90bd
00000050: d290 56be 3ad8 4d3d 5be0 b4bd e492 223d
00000060: c623 d9bd 4cfd cbbd ebe8 75bc 2855 9ebd
00000070: 60c7 0d3e c06f 923d 1995 173e

bn1.weight f4 [31]
0.916944 0.8793798 0.9424899 0.777005 0.7780062 0.85607874 0.8375507 0.98529154
1.3224123 1.3451598 1.2083378 0.9447718 1.0455862 0.82945806 0.78260237 0.8231805
0.92382866 1.4194889 0.909215 0.90358776 0.76422435 0.90675116 0.9208271 0.87241906
0.8340955 0.7777134 0.8098028 0.86244947 0.80847603 1.2303922 0.8693365
00000000: d8bc 6a3f 091f 613f 0547 713f cde9 463f
00000010: 6a2b 473f fa27 5b3f b969 563f 113c 7c3f
00000020: ce44 a93f 322e ac3f d0aa 9a3f 91dc 713f
00000030: c5d5 853f 5d57 543f a158 483f f5bb 523f
00000040: 0980 6c3f d0b1 b53f 50c2 683f 8751 673f
00000050: 35a4 433f d820 683f 53bb 6b3f db56 5f3f
00000060: 4887 553f 3a18 473f 3c4f 4f3f 7dc9 5c3f
00000070: 49f8 4e3f 7e7d 9d3f d68c 5e3f

bn1.bias f4 [31]
-0.08218754 -0.042520426 -0.048393756 -0.2421492 -0.1661216 -0.09348815 -0.09433836 0.06508426
-0.15118738 -0.14421113 0.022878872 0.041806098 -0.067745484 -0.19360161 -0.03018404 -0.1523709
-0.016505636 0.0424226 0.0055342545 -0.028074484 -0.19360515 -0.06551082 -0.007222667 -0.06724139
-0.064328946 -0.17507537 -0.12276601 -0.113773525 -0.043908305 -0.16722189 -0.14822578
00000000: f151 a8bd e629 2ebd 8838 46bd f6f5 77be
00000010: c81b 2abe b776 bfbd 7834 c1bd e64a 853d
00000020: ddd0 1abe 15ac 13be 796c bb3c df3c 2b3d
00000030: 25be 8abd 803f 46be 8544 f7bc 1e07 1cbe
00000040: d436 87bc 52c3 2d3d b158 b53b 76fc e5bc
00000050: 6e40 46be 892a 86bd 1fac ecbb dbb5 89bd
00000060: e5be 83bd f546 33be bf6c fbbd 1802 e9bd
00000070: 32d9 33bd 373c 2bbe 80c8 17be

bn1.running_mean f4 [31]
0.051803403 0.2207894 -0.13588093 -0.15850855 0.03843013 0.14356312 -0.11388034 0.023641683
0.2698686 0.05416441 0.07378347 0.1641287 0.19145854 -0.08850381 0.012842546 0.102732666
0.16931427 -0.15710586 0.0543007 -0.070435256 -0.20988575 0.051181108 -0.087579966 0.04084745
-0.10616995 -0.0997066 -0.014974078 -0.07753533 0.13926327 0.0713282 0.14857742
00000000: ce2f 543d 9e16 623e 5f24 0bbe 1150 22be
00000010: e968 1d3d 3602 133e 183a e9bd 34ac c13c
00000020: 382c 8a3e 80db 5d3d ca1b 973d 5b11 283e
00000030: b50d 443e 7c41 b5bd 8b69 523c 8165 d23d
00000040: b860 2d3e 5ce0 20be 696a 5e3d 5c40 90bd
00000050: 4aec 56be 48a3 513d 205d b3bd a84f 273d
00000060: a16f d9bd f932 ccbd d655 75bc d8ca 9ebd
00000070: 089b 0e3e 8514 923d ae24 183e

bn1.running_var f4 [31]
1.1205547 0.9681535 2.6389766 4.4464517 1.2409528 1.5720296 4.790273 0.77625656
0.30005375 0.5452729 0.45922747 2.3659678 0.35504296 0.88020706 0.8328718 1.556717
1.0832365 0.28263158 2.0418 0.6525977 1.3026047 2.051486 2.121608 0.46775076
3.2827938 1.6049438 4.4714937 3.6708272 0.7574135 0.35362893 0.689033
00000000: 566e 8f3f e8d8 773f fee4 2840 5549 8e40
00000010: 8bd7 9e3f 4438 c93f eb49 9940 c0b8 463f
00000020: a5a0 993e 0197 0b3f dd1f eb3e 046c 1740
00000030: 31c8 b53e 4055 613f 1637 553f 8142 c73f
00000040: 7ea7 8a3f 16b5 903e daac 0240 a510 273f
00000050: c0bb a63f 8c4b 0340 6dc8 0740 077d ef3e
00000060: 4b19 5240 cc6e cd3f 7a16 8f40 d5ee 6a40
00000070: dae5 413f da0e b53e 7764 303f

conv2.weight f4 [31, 1, 1, 31]
-0.101192586 -0.07472758 0.09834191 -0.13466987 0.12566537 -0.06115853 0.24281089 0.08101953
-0.10961962 -0.18932582 -0.1718021 0.17395952 -0.024349345 0.090495005 0.19640455 0.06602474
-0.121957645 -0.050501153 -0.014682759 0.015657144 -0.10935223 -0.24718933 0.044764105 -0.27190202
-0.08265082 -0.06959405 0.024191262 0.15040018 -0.16548173 0.14249632 -0.11765191 -0.038623452
-0.12422487 -0.022213345 -0.15205812 -0.075658195 0.21630552 -0.06849892 -0.1147545 -0.040541887
-0.021656435 0.07301178 0.0005524256 0.010508483 0.08976992 0.119888864 0.0786624 -0.06356141
0.08603558 -0.26732683 -0.25524554 0.06255013 0.053715274 -0.038832914 -0.07740882 0.06787765
-0.4174586 -0.26574254 -0.1056507 -0.022119766 -0.319478 -0.045471948 0.12717685 -0.045689743
-0.044127636 0.22438958 -0.02653436 0.07115817 -0.1424343 0.00016814446 0.07930732 0.124941744
0.062413465 -0.039594308 -0.19063203 -0.17083073 0.00870304 0.1510929 -0.017421503 0.17562693
0.19805749 -0.21917276 -0.13245249 0.008980298 0.13947298 0.26005808 0.11154235 -0.13008256
-0.18769671 -0.048461374 -0.23807462 0.10173015 0.16164915 0.04881073 -0.090479694 -0.083103
0.10024709 -0.14317128 -0.118244566 -0.113401726 0.18401568 -0.06927802 0.1444298 -0.058242384
-0.03173098 -0.013824627 0.1587478 -0.041495934 -0.0076927976 0.15450808 -0.08046258 0.08829196
-0.19148521 -0.058718402 -0.09203799 0.2566049 0.12101033 0.17523319 -0.2078021 0.09515802
-0.08558272 -0.05227256 0.09561382 -0.09081485 0.08785576 -0.12033452 -0.076461196 -0.09325199
-0.14400259 0.1553718 0.024237359 -0.09245293 -0.13970491 -0.18329497 -0.06436564 0.061249893
-0.23072715 0.24289814 -0.09774731 0.06303559 0.068694554 -0.13551891 0.114383884 0.17400484
-0.064368546 0.016696919 -0.16949221 -0.10433458 -0.060792457 -0.10924023 0.1451802 -0.15011424
-0.19833203 -0.40830415 0.13556845 -0.037873473 0.0035046884 -0.109385684 -0.34555385 0.06576452
-0.033282034 0.1493621 -0.06482184 0.026527585 0.13219154 -0.39425117 -0.061917722 0.19452463
0.14271942 0.26236552 0.09209829 -0.12914613 -0.31062046 -0.15928245 -0.022666233 0.08547833
-0.025288865 0.059424695 -0.10911242 0.115311146 -0.05173221 0.03964447 0.055140972 -0.11006735
-0.13100415 0.101209365 -0.07610811 0.040173154 -0.43980145 -0.04238985 0.019312391 -0.113816455
0.063024595 0.0525102 -0.015996486 0.09160599 0.10642694 -0.036002174 -0.091747016 -0.14480312
0.11092149 0.14482245 0.16299199 -0.19232874 0.01396309 0.019685866 0.018208174 0.056309834
-0.06188492 -0.033558268 -0.21955122 0.17709802 0.13036431 0.022370076 0.24774101 -0.08836107
-0.30145115 -0.050632946 0.044863347 0.09328609 0.16958527 -0.042899273 -0.1946875 -0.026477836
0.123001404 0.030446077 -0.26420397 0.31540608 0.037282337 0.05715952 0.05160664 0.12652467
-0.13924494 0.028191565 -0.020347416 -0.32520837 -0.3702601 0.058714624 0.19235837 -0.030541629
-0.0035407927 -0.22027262 -0.11472075 0.11593058 -0.10462991 0.12095009 -0.109502405 -0.048179515
-0.03232195 -0.21069449 0.08283313 -0.14583789 0.20080459 0.047975793 0.056610495 -0.015886173
00000000: 0f3e cfbd c60a 99bd 7c67 c93d e6e6 09be
00000010: 6cae 003e 5e81 7abd 6ba3 783e 91ed a53d
00000020: 4080 e0bd a1de 41be e4ec 2fbe 7222 323e
00000030: 4778 c7bc 7255 b93d 461e 493e fb37 873d
00000040: eec4 f9bd 4cda 4ebd f48f 70bc 6943 803c
00000050: 10f4 dfbd 331f 7dbe 915a 373d be36 8bbe
00000060: d544 a9bd 5387 8ebd c12c c63c 8102 1a3e
00000070: 0b74 29be 8eea 113e 7cf3 f0bd a033 1ebd
00000080: 9c69 febd c3f8 b5bc 20b5 1bbe aff2 9abd
00000090: 327f 5d3e 2949 8cbd 6804 ebbd 400f 26bd
000000a0: d668 b1bc 3387 953d a8d0 103a c62b 2c3c
000000b0: 4bd9 b73d 4b88 f53d c119 a13d 7c2c 82bd
000000c0: 6c33 b03d 10df 88be 8baf 82be 481a 803d
000000d0: 8c04 5c3d 430f 1fbd 8488 9ebd 7003 8b3d
000000e0: 22bd d5be 680f 88be 655f d8bd 8334 b5bc
000000f0: 9f92 a3be cb40 3abd a63a 023e 2b25 3bbd
00000100: 2ebf 34bd 62c6 653e 965e d9bc 60bb 913d
00000110: 4cda 11be ef4f 3039 e06b a23d 75e1 ff3d
00000120: 43a5 7f3d a42d 22bd 0b35 43be 40ee 2ebe
00000130: 3297 0e3c 19b8 1a3e 8ab7 8ebc 8cd7 333e
00000140: 95cf 4a3e d36e 60be a0a1 07be 1a22 133c
00000150: 01d2 0e3e 5526 853e 5170 e43d 5d34 05be
00000160: 9133 40be 6f7f 46bd d5c9 73be e657 d03d
00000170: 5b87 253e c3ed 473d 6b4d b9bd e831 aabd
00000180: 594e cd3d 7e9b 12be 352a f2bd 2a3f e8bd
00000190: 9b6e 3c3e a2e1 8dbd 68e5 133e 918f 6ebd
000001a0: 58f8 01bd b080 62bc c98e 223e a4f7 29bd
000001b0: dd13 fcbb 5e37 1e3e 91c9 a4bd 6ad2 b43d
000001c0: b314 44be b582 70bd 6a7e bcbd b861 833e
000001d0: 44d4 f73d 5470 333e 13ca 54be 35e2 c23d
000001e0: fe45 afbd c01b 56bd 2ed1 c33d 23fd b9bd
000001f0: b8ed b33d f271 f6bd b097 9cbd e6fa bebd
00000200: 6a75 13be c919 1f3e 6d8d c63c f657 bdbd
00000210: ce0e 0fbe adb1 3bbe 22d2 83bd 2be1 7a3d
00000220: bd43 6cbe 4aba 783e be2f c8bd ce18 813d
00000230: bbaf 8c3d 78c5 0abe 1942 ea3d 532e 323e
00000240: a8d3 83bd fac7 883c 5e8f 2dbe 5ead d5bd
00000250: 8301 79bd 57b9 dfbd 1eaa 143e 8cb7 19be
00000260: 8d17 4bbe 3e0d d1be 75d2 0a3e 3721 1bbd
00000270: eaae 653b 9a05 e0bd 6fec b0be 8caf 863d
00000280: be52 08bd 61f2 183e 50c1 84bd 6150 d93c
00000290: 385d 073e 4adb c9be 709d 7dbd 7731 473e
000002a0: 0a25 123e c654 863e 079e bc3d e23e 04be
000002b0: a509 9fbe f01a 23be 89ae b9bc 430f af3d
000002c0: 982a cfbc 4f67 733d 5576 dfbd 4028 ec3d
000002d0: 27e5 53bd 3d62 223d 80db 613d fe6a e1bd
000002e0: f425 06be db46 cf3d 92de 9bbd 9b8c 243d
000002f0: a82d e1be fba0 2dbd 0535 9e3c 9a18 e9bd
00000300: 0a13 813d ef14 573d 100b 83bc ec9b bb3d
00000310: 5ef6 d93d 0477 13bd dce5 bbbd 4547 14be
00000320: ce2a e33d 564c 143e 5fe7 263e d3f1 44be
00000330: 72c5 643c 4144 a13c 4f29 953c 24a5 663d
00000340: 0b7b 7dbd 6574 09bd 09d2 60be 2f59 353e
00000350: 397e 053e 7341 b73c d2af 7d3e a6f6 b4bd
00000360: ce57 9abe 7e64 4fbd a1c2 373d c70c bf3d
00000370: c3a7 2d3e 26b7 2fbd 295c 47be 0ce8 d8bc
00000380: 29e8 fb3d 0d6a f93c be45 87be e87c a13e
00000390: 5db5 183d 1a20 6a3d 7c61 533d af8f 013e
000003a0: 3a96 0ebe fff1 e63c a0af a6bc b681 a6be
000003b0: bb92 bdbe bf7e 703d 98f9 443e 7032 fabc
000003c0: a50c 68bb 258f 61be b6f2 eabd 036d ed3d
000003d0: 3548 d6bd aeb4 f73d cc42 e0bd e257 45bd
000003e0: 0564 04bd 4cc0 57be 6ba4 a93d 8756 15be
000003f0: b89f 4d3e 4482 443d 68e0 673d b823 82bc

conv2.bias f4 [31]
-0.05348143 -0.0588915 -0.11762562 0.05873313 0.11301712 -0.07703441 0.023335079 0.11210694
-0.035768464 -0.110243596 0.017379226 -0.092700586 -0.14308564 -0.07790348 -0.035986543 -0.18152891
-0.053946048 -0.1452548 -0.06238047 0.12340434 -0.1008448 0.021392703 -0.031572547 0.07997707
0.22191945 0.018532313 -0.059220392 -0.094062686 -0.13909662 0.08009471 -0.012090542
00000000: 580f 5bbd 3738 71bd b3e5 f0bd 2792 703d
00000010: 8575 e73d 37c4 9dbd 3529 bf3c 5398 e53d
00000020: f481 12bd 65c7 e1bd e15e 8e3c ced9 bdbd
00000030: 0b85 12be dc8b 9fbd a066 13bd b7e2 39be
00000040: 88f6 5cbd adbd 14be aa82 7fbd 6abb fc3d
00000050: b887 cebd c03f af3c 3752 01bd 05cb a33d
00000060: da3e 633e 14d1 973c 1591 72bd f0a3 c0bd
00000070: 586f 0ebe b208 a43d 6917 46bc

bn2.weight f4 [31]
1.3210269 0.79121685 0.99308693 1.1027435 1.1827115 1.3862826 1.1340162 0.9872629
0.7541715 1.0920175 1.0315324 1.0314343 1.4161026 1.2818453 1.1368984 1.0825343
0.95407903 0.89040345 0.9866979 0.9055845 0.8409404 0.95598793 1.0214453 0.7944222
0.6396224 1.0994418 1.4467596 1.3110532 1.0354306 0.94307697 0.67431736
00000000: 6917 a93f 308d 4a3f f23a 7e3f b326 8d3f
00000010: 1763 973f b571 b13f 7127 913f 43bd 7c3f
00000020: 6211 413f 3bc7 8b3f 4109 843f 0a06 843f
00000030: da42 b53f 8213 a43f e385 913f 7c90 8a3f
00000040: 863e 743f 7bf1 633f 3c98 7c3f 63d4 673f
00000050: df47 573f a0bb 743f b8be 823f 415f 4b3f
00000060: 4bbe 233f 82ba 8c3f 6b2f b93f 97d0 a73f
00000070: fd88 843f 7e6d 713f 10a0 2c3f

bn2.bias f4 [31]
0.5522702 -0.61379534 -0.3764183 -0.024073184 0.20589748 0.20987849 -0.03945116 0.15173757
-0.25768942 -0.2067612 -0.081148535 -0.101584375 -0.23196745 0.04727326 0.13399199 -0.0951127
-0.14359333 -0.12926085 -0.18010204 -0.20567884 -0.27206036 -0.04943702 -0.11216845 -0.40051287
-0.33982798 -0.16013288 -0.29631868 -0.13151671 -0.48081636 -0.18851113 -0.5091838
00000000: 9461 0d3f b121 1dbf e6b9 c0be 2035 c5bc
00000010: cad6 523e 63ea 563e 8a97 21bd 1861 1b3e
00000020: deef 83be 35b9 53be 3431 a6bd 780b d0bd
00000030: e088 6dbe 9ba1 413d 3235 093e 72ca c2bd
00000040: 210a 13be f55c 04be ab6c 38be 799d 52be
00000050: 7f4b 8bbe 797e 4abd 93b8 e5bd 0610 cdbe
00000060: effd adbe e0f9 23be 15b7 97be 51ac 06be
00000070: 902d f6be 1009 41be df59 02bf

bn2.running_mean f4 [31]
-0.18541417 -0.56513834 0.027654326 0.23609556 -0.21394733 -0.101494275 -0.024272734 -0.08683353
0.09951513 -0.39717284 -0.27906838 -0.56294405 -0.20782956 -0.3623573 -0.22512464 -0.005054454
0.09340372 -0.4140346 0.2914283 0.0021207908 -0.18119965 0.01436618 -0.08732964 -0.28159428
-0.09498228 0.05392361 -0.2187911 -0.1111801 -0.3098663 0.045804497 -0.081910275
00000000: 36dd 3dbe e8ac 10bf 538b e23c 09c3 713e
00000010: 0215 5bbe 3bdc cfbd 9dd7 c6bc c7d5 b1bd
00000020: 97ce cb3d 3d5a cbbe 0de2 8ebe 1a1d 10bf
00000030: 46d1 54be e586 b9be 1387 66be d59f a5bb
00000040: 734a bf3d 58fc d3be 1736 953e f7fc 0a3b
00000050: 678c 39be 2060 6b3c e2d9 b2bd 202d 90be
00000060: 1286 c2bd 01df 5c3d c60a 60be 64b2 e3bd
00000070: cca6 9ebe 7f9d 3b3d 93c0 a7bd

bn2.running_var f4 [31]
0.28043053 0.17874077 0.33113644 0.22572571 0.07134985 0.08699535 0.16512793 0.25882646
0.15056191 0.091634 0.07739958 0.16995552 0.08586981 0.07762192 0.070209794 0.08433813
0.098672085 0.16773383 0.08099332 0.12306862 0.072457284 0.15287058 0.07384982 0.16171747
0.24225727 0.10147671 0.10827217 0.07554629 0.061347224 0.13093963 0.17082173
00000000: 9794 8f3e d207 373e b78a a93e a424 673e
00000010: df1f 923d 9e2a b23d 4c17 293e e784 843e
00000020: e72c 1a3e 9baa bb3d ac83 9e3d d208 2e3e
00000030: 83dc af3d 3ef8 9e3d 27ca 8f3d 78b9 ac3d
00000040: 9714 ca3d 6bc2 2b3e d3df a53d 670b fc3d
00000050: 7c64 943d 1b8a 1c3e 933e 973d 4499 253e
00000060: 4a12 783e 05d3 cf3d cdbd dd3d 03b8 9a3d
00000070: 3a47 7b3d 0a15 063e e4eb 2e3e

fc1.weight f4 [128, 314]
0.050969616 0.020995103 0.01632347 -0.04050032 0.010393219 0.119360335 0.001598283 -0.06941435
-0.047992136 -0.017302906 -0.043817613 0.026354602 0.03350902 -0.010932986 -0.03813726 0.009069468
0.052617062 -0.07849418 -0.056659974 -0.1089732 -0.1238081 -0.06272977 0.06185831 -0.048965637
-0.03655693 -0.09262436 0.0241737 0.008835467 -0.05233893 -0.0801323 0.0073527996 0.11470355
-0.045096707 0.03380578 -0.04364793 -0.07364715 -0.028047066 -0.087913 -0.06305118 0.0707465
-0.00016898979 -0.07007047 0.045874607 0.10208544 0.059447996 -0.037840813 -0.060943972 -0.11349446
0.055382587 0.0353367 -0.013711621 -0.0791737 -0.30926898 0.26828417 0.10268524 0.11203274
0.0132757835 -0.26201582 0.04078491 -0.05577782 -0.04684538 -0.06648828 0.048290074 -0.10800927
0.020929221 -0.15199648 0.018094592 -0.076399796 0.085793026 -0.16726017 0.031197539 -0.082563445
-0.31653196 -0.060439248 -0.0016894564 0.12936528 -0.080877185 0.02025017 0.039549734 -0.019805683
-0.04150437 0.0089270435 -0.114602424 0.012335688 0.028412614 -0.072494596 -0.034911986 -0.009548882
0.06692151 -0.029390829 0.04355659 -0.117732845 -0.2506224 0.024307588 0.15558904 -0.124858156
0.060989946 0.06935981 -0.10837875 0.001211845 -0.012740019 -0.07180821 0.12380671 -0.1068989
-0.1402084 0.002137469 0.1014766 -0.030304402 -0.026170151 0.120944716 0.047236707 0.07606367
-0.10849771 -0.21951297 0.008178844 0.18940863 0.020951988 -0.009587649 -0.07199044 -0.1730619
0.06093163 -0.043392763 -0.264992 -0.0045107254 -0.08664736 -0.16061848 -0.13803047 0.07180494
-0.108590886 -0.13710208 -0.07238781 -0.11442226 -0.0107860295 0.017189968 0.031137835 -0.27493605
-0.05220525 0.010717206 -0.1455916 -0.2208849 0.101760924 0.024055036 0.04285423 0.013954227
0.05310879 -0.004332535 -0.055177692 -0.090878755 -0.0077387425 -0.057486046 0.03381447 -0.09934858
-0.045243762 -0.100002944 0.006769785 -0.13243218 -0.056721777 0.039809532 -0.094403796 0.14435922
-0.0050978675 -0.021373045 -0.028022021 -0.021829974 -0.14382344 -0.0696633 -0.06883691 -0.101870686
-0.0806916 -0.115870304 0.060515188 0.050158538 -0.2900618 0.17362112 0.007825491 0.05172267
0.117038645 -0.095398456 0.04849511 -0.000724267 0.117451005 0.045273773 -0.090223484 -0.1377594
0.09713817 -0.041056383 -0.18612008 -0.105565175 -0.039040398 -0.02974602 0.029287742 -0.03266898
0.07540004 0.11947544 0.00095021754 -0.14608979 0.11239847 -0.06837949 -0.026360478 0.0480159
-0.059170585 0.013576102 0.018301282 0.04206225 -0.01608563 0.06561085 -0.029529715 -0.03442979
-0.112267435 -0.061016753 -0.039288092 -0.024529 -0.021688847 0.029849099 0.14492114 -0.1799718
0.07845543 0.14260775 0.031505782 -0.017995955 0.11146953 0.054820325 0.114635885 -0.013087968
0.15236856 0.06349942 0.1391724 0.017180374 -0.002423875 -0.076252885 -0.10636328 0.057197068
-0.037449546 -0.06261833 0.084511 -0.016780853 0.04297843 0.012333162 0.08495272 -0.0037880866
0.00022832563 -0.0408663 0.011813237 0.078815386 0.004691913 -0.086259365 0.08021973 -0.08693731
0.098246306 -0.00030563393 0.048537154 -0.036668725 0.047049176 -0.076006204 -0.0010519125 -0.14096561
00000000: 84c5 503d ecfd ab3c ccb8 853c aae3 25bd
00000010: 5248 2a3c 3173 f43d 7a7d d13a 1c29 8ebd
00000020: 6793 44bd d3be 8dbc 197a 33bd 9be5 d73c
00000030: c140 093d 4420 33bc d135 1cbd 1b98 143c
00000040: fd84 573d 8fc1 a0bd 4a14 68bd 572d dfbd
00000050: 1a8f fdbd 7778 80bd 245f 7d3d 3190 48bd
00000060: b8bc 15bd d7b1 bdbd ec07 c63c a2c2 103c
00000070: 5961 56bd 671c a4bd c1ef f03b b2e9 ea3d
00000080: 53b7 38bd ee77 0a3d 2cc8 32bd 51d4 96bd
00000090: f6c2 e5bc bb0b b4bd fa20 81bd 8ae3 903d
000000a0: da32 31b9 1b81 8fbd 03e7 3b3d 2c12 d13d
000000b0: be7f 733d f8fe 1abd 63a0 79bd c96f e8bd
000000c0: dad8 623d 37bd 103d b5a6 60bc d225 a2bd
000000d0: 8158 9ebe 8b5c 893e a44c d23d 6c71 e53d
000000e0: ac82 593c f026 86be 140e 273d 4977 64bd
000000f0: f1e0 3fbd 022b 88bd d0cb 453d f733 ddbd
00000100: c273 ab3c f7a4 1bbe 1c3b 943c 7f77 9cbd
00000110: 41b4 af3d 4046 2bbe fb91 ff3c 0617 a9bd
00000120: 7a10 a2be 258f 77bd c070 ddba 5578 043e
00000130: f0a2 a5bd afe3 a53c e7fe 213d 873f a2bc
00000140: 7c00 2abd bc42 123c adb4 eabd a01b 4a3c
00000150: 92c1 e83c 0c78 94bd dfff 0ebd ea72 1cbc
00000160: 250e 893d 09c5 f0bc 6568 323d eb1d f1bd
00000170: 9451 80be b520 c73c bc52 1f3e a2b5 ffbd
00000180: 98d0 793d 840c 8e3d aef5 ddbd c5d6 9e3a
00000190: 83bb 50bc 2f10 93bd 5f8e fd3d cfed dabd
000001a0: ca92 0fbe c714 0c3b f7d2 cf3d f040 f8bc
000001b0: c962 d6bc ddb1 f73d 477b 413d 45c7 9b3d
000001c0: 0c34 debd 02c8 60be 8f00 063c 56f4 413e
000001d0: 81a3 ab3c 8415 1dbc b96f 93bd 2437 31be
000001e0: 7293 793d 9cbc 31bd 08ad 87be b5ce 93bb
000001f0: 2c74 b1bd 2c79 24be dc57 0dbe 780e 933d
00000200: e664 debd 7d64 0cbe 0f40 94bd 3856 eabd
00000210: e3b7 30bc fad1 8c3c c614 ff3c 6bc4 8cbe
00000220: 2cd5 55bd 3897 2f3c f715 15be a72f 62be
00000230: 0868 d03d 110f c53c eb87 2f3d 45a0 643c
00000240: 9a88 593d f0f7 8dbb 0102 62bd a41e babd
00000250: 4795 fdbb 7d76 6bbd 0b81 0a3d 4577 cbbd
00000260: 8651 39bd 58ce ccbd 13d5 dd3b 4d9c 07be
00000270: 1855 68bd 520f 233d c756 c1bd e7d2 133e
00000280: 030c a7bb 8616 afbc 708e e5bc c6d4 b2bc
00000290: 7446 13be a2ab 8ebd 5efa 8cbd 94a1 d0bd
000002a0: a341 a5bd 694d edbd c6de 773d 0a73 4d3d
000002b0: fb82 94be bcc9 313e 7d36 003c 27db 533d
000002c0: f5b1 ef3d 4460 c3bd cfa2 463d bcdc 3dba
000002d0: 278a f03d fe70 393d 17c7 b8bd cd10 0dbe
000002e0: 60f0 c63d bd2a 28bd 4396 3ebe 8e32 d8bd
000002f0: d3e8 1fbd edad f3bc d9ec ef3c e9cf 05bd
00000300: 566b 9a3d 8aaf f43d 0518 793a 9098 15be
00000310: 2b31 e63d 8c0a 8cbd eef1 d7bc 52ac 443d
00000320: db5c 72bd 4d6e 5e3c 92ec 953c 7749 2c3d
00000330: 03c6 83bc fb5e 863d 4de8 f1bc 4006 0dbd
00000340: 78ec e5bd b4ec 79bd 8dec 20bd 0bf1 c8bc
00000350: cfac b1bc 1986 f43c 3566 143e 874a 38be
00000360: 3ead a03d c407 123e 350c 013d 416c 93bc
00000370: 234a e43d 478b 603d 38c6 ea3d eb6e 56bc
00000380: 8106 1c3e fc0b 823d 3683 0e3e dbbd 8c3c
00000390: e0d9 1ebb 792a 9cbd fed4 d9bd 7947 6a3d
000003a0: b264 19bd 0a3e 80bd 1a14 ad3d 0078 89bc
000003b0: 260a 303d 0811 4a3c b1fb ad3d 8c41 78bb
000003c0: b26a 6f39 6c63 27bd 4f8c 413c f669 a13d
000003d0: 9ebe 993b c0a8 b0bd 3e4a a43d 300c b2bd
000003e0: 5c35 c93d 7e3d a0b9 e5ce 463d f231 16bd
000003f0: a3b6 403d 24a9 9bbd 54e0 89ba 4a59 10be

fc1.bias f4 [128]
0.027477894 0.040077846 -0.06528649 -0.013822145 0.016099144 -0.025662031 -0.028242394 0.054574452
-0.032699853 0.013725819 0.038280554 -0.03552867 -0.034894604 -0.028585138 0.044003766 -0.041676946
-0.04606453 -0.047382865 0.036984697 -0.0158705 0.006804001 0.02334905 0.029553961 -0.042484596
0.0022602703 -0.031064669 -0.029231021 -0.027630173 0.01800851 0.00462285 -0.024432454 -0.037173856
-0.034039885 -0.028667059 -0.027050573 0.0022193308 -0.083817445 -0.03600899 -0.048974365 0.0014902354
-0.031400602 0.056161333 -0.053483266 -0.0040283226 -0.06967289 -0.013323722 -0.00473796 -0.054695956
0.021651676 -0.021253692 -0.03194511 -0.022531087 -0.035903856 -0.028504202 -0.056940354 -0.015918002
0.020236684 0.015293665 0.004764063 0.0005473005 0.02470157 0.030963229 0.047990892 -0.046029147
-0.044189442 0.038008768 -0.022381045 0.033800203 -0.04684032 0.020643955 -0.049808443 0.0408521
-0.018275572 -0.006592688 0.038112577 0.00965526 -0.04618224 -0.037307847 0.03962787 0.00043944444
-0.030207202 0.033780172 -0.06699369 -0.026111552 0.019397857 -0.008959408 0.035316627 -0.062219914
-0.019645315 -0.0542303 0.04816849 0.009056247 -0.07095799 -0.03201274 -0.0620908 -0.0012432267
0.039084937 -0.02018728 -0.011053632 -0.04524158 0.016287299 -0.039158683 0.044247594 0.041952565
0.03291338 -0.048711907 0.0311656 -0.013112736 0.035564113 0.028739227 0.018808547 0.017883765
0.046804488 0.02195711 0.03133174 0.038618684 0.040114347 -0.033995703 -0.039573226 -0.02170601
0.03299353 -0.019278951 -0.051439933 -0.041960992 -0.03836561 -0.060900286 0.03551407 0.027318986
00000000: 5219 e13c ab28 243d ecb4 85bd 4776 62bc
00000010: 5ae2 833c 2e39 d2bc 985c e7bc 7689 5f3d
00000020: 48f0 05bd 42e2 603c 12cc 1c3d 8386 11bd
00000030: a5ed 0ebd 612b eabc 4b3d 343d 72b5 2abd
00000040: 29ae 3cbd 8914 42bd 447d 173d da02 82bc
00000050: 19f4 de3b 8246 bf3c 261b f23c 5404 2ebd
00000060: 0b21 143b 557b febc e575 efbc ac58 e2bc
00000070: 9586 933c 477b 973b 9226 c8bc 9d43 18bd
00000080: 686d 0bbd 2ed7 eabc 2a99 ddbc 3172 113b
00000090: 7ba8 abbd 2a7e 13bd 5899 48bd 0154 c33a
000000a0: eb9d 00bd 6d09 663d 4511 5bbd 0500 84bb
000000b0: a9b0 8ebd be4b 5abc e440 9bbb de08 60bd
000000c0: db5e b13c 391c aebc e0d8 02bd 1d93 b8bc
000000d0: ec0f 13bd a581 e9bc 4a3a 69bd 7866 82bc
000000e0: 67c7 a53c 4892 7a3c db1b 9c3b b778 0f3a
000000f0: f25a ca3c 99a6 fd3c 1992 443d 0f89 3cbd
00000100: fdff 34bd 15af 1b3d 7458 b7bc 1572 0a3d
00000110: a3db 3fbd 831d a93c f003 4cbd 8854 273d
00000120: a7b6 95bc 7a07 d8bb ef1b 1c3d 1831 1e3c
00000130: 9729 3dbd 1dd0 18bd d550 223d 3c65 e639
00000140: 1875 f7bc 145d 0a3d fd33 89bd e5e7 d5bc
00000150: 41e8 9e3c 7bca 12bc 2ba8 103d 4fda 7ebd
00000160: 36ef a0bc 9720 5ebd 534c 453d a760 143c
00000170: 6c52 91bd ca1f 03bd ec52 7ebd c4f3 a2ba
00000180: 8717 203d cb5f a5bc 4b1a 35bc 3c4f 39bd
00000190: f16c 853c db64 20bd f73c 353d 74d6 2b3d
000001a0: 2ed0 063d 2386 47bd 004f ff3c cdd6 56bc
000001b0: adab 113d 876e eb3c 6214 9a3c f980 923c
000001c0: 10b6 3f3d 66df b33c b655 003d a02e 1e3d
000001d0: f14e 243d 143f 0bbd 8917 22bd cdd0 b1bc
000001e0: 3924 073d e4ee 9dbc aeb2 52bd 4adf 2bbd
000001f0: 4225 1dbd 9472 79bd 3477 113d 11cc df3c

fc2.weight f4 [1, 128]
-0.01495273 0.12101276 -0.032579742 0.06408717 -0.019508436 0.057187337 0.03688279 -0.022313261
0.070723884 -0.037375398 -0.030760838 0.014864293 0.05412735 -0.014879831 0.05157353 0.05962442
-0.028581448 -0.010781239 -0.017986264 -0.021305539 0.07446986 0.050400477 0.09478563 -0.026099993
-0.024993174 0.037553336 0.0471676 -0.029561838 -0.04380639 0.046494976 0.036976907 -0.03257006
-0.039681997 0.0031120072 0.043031618 -0.026330369 -0.03719933 -0.010129646 -0.0012774726 -0.025450807
0.042939458 0.047805138 -0.041395847 -0.02806557 0.062644094 0.0821349 0.046957225 -0.013368569
-0.059229568 -0.031599015 0.040112395 -0.03182854 -0.017778963 0.061695587 0.03308905 -0.041285645
-0.03237045 -0.030208724 -0.022243282 0.047283746 -0.028546063 -0.01890871 0.042294182 0.042283773
-0.030979365 -0.004495983 -0.002502786 0.04367224 0.039909177 0.072281085 0.040148944 -0.032518387
-0.011028532 0.035778996 -0.015646655 0.057671573 0.062210195 0.04211115 0.07280306 -0.022625351
0.02683278 0.06408026 -0.032384034 0.08699595 0.010680532 -0.041328527 -0.0289778 0.0006969606
-0.0018140023 -0.030250648 -0.022464905 -0.019833244 0.05091112 0.07396644 0.10438945 -0.021340083
0.034008678 -0.013562075 -0.043762635 0.039023735 0.03814546 0.015301343 0.042616874 0.03634377
0.06225434 -0.04090193 0.049200997 0.06726523 0.059286907 -0.021592211 0.06249594 0.08036704
0.06020428 0.057085678 -0.024871496 -0.035315927 -0.026704406 0.056746718 0.051090363 -0.039863646
-0.044415522 0.05557286 0.06849925 -0.049535826 0.059685253 0.0633207 0.04448718 -0.017279165
00000000: 4cfc 74bc 8ad5 f73d 5672 05bd 2240 833d
00000010: 28d0 9fbc 453d 6a3d 6912 173d 4dca b6bc
00000020: afd7 903d f216 19bd 27fe fbbc 5d89 733c
00000030: a4b4 5d3d 89ca 73bc c43e 533d bc38 743d
00000040: a423 eabc cba3 30bc ee57 93bc f488 aebc
00000050: a783 983d bb70 4e3d f81e c23d a7cf d5bc
00000060: 7cbe ccbc 87d1 193d d032 413d ab2b f2bc
00000070: 546e 33bd 8471 3e3d 1975 173d 2f68 05bd
00000080: 9789 22bd d1f2 4b3b ec41 303d c9b2 d7bc
00000090: 535e 18bd d1f6 25bc de70 a7ba 367e d0bc
000000a0: 49e1 2f3d 52cf 433d b18e 29bd c4e9 e5bc
000000b0: 8c4b 803d 5836 a83d 3856 403d d807 5bbc
000000c0: b49a 72bd f86d 01bd e54c 243d a55e 02bd
000000d0: 30a5 91bc 83b4 7c3d 6288 073d 231b 29bd
000000e0: e196 04bd 4978 f7bc 8b37 b6bc 9aac 413d
000000f0: 6fd9 e9bc 70e6 9abc aa3c 2d3d c031 2d3d
00000100: 70c8 fdbc 0a53 93bb c805 24bb aae1 323d
00000110: ce77 233d 1b08 943d 3873 243d 0032 05bd
00000120: 04b1 34bc ff8c 123d 6a2d 80bc 0739 6c3d
00000130: 1ed0 7e3d be7c 2c3d c519 953d cd58 b9bc
00000140: 6bd0 db3c 833c 833d 1fa5 04bd ef2a b23d
00000150: 66fd 2e3c 1a48 29bd da62 edbc 3cb4 363a
00000160: d1c3 edba 35d0 f7bc 5208 b8bc 5479 a2bc
00000170: 2e88 503d b87b 973d 23ca d53d 66d1 aebc
00000180: af4c 0b3d 7733 5ebc 7340 33bd 5ad7 1f3d
00000190: 6a3e 1c3d 7cb2 7a3c 088f 2e3d 34dd 143d
000001a0: 68fe 7e3d c888 27bd fc86 493d 5ac2 893d
000001b0: d4d6 723d 26e2 b0bc befb 7f3d 7a97 a43d
000001c0: c398 763d acd2 693d 4fbf cbbc 6fa7 10bd
000001d0: 33c3 dabc 3f6f 683d 2144 513d 1048 23bd
000001e0: 0ded 35bd 5ea0 633d 5649 8c3d 14e6 4abd
000001f0: 8678 743d 48ae 813d 3038 363d 098d 8dbc
