model_Xian/ys_model.pth (torch, 175732 bytes, 15 tensors)

conv1.weight f4 [31, 1, 1, 31]
0.010198807 0.1597168 0.22064301 -0.09346637 0.09729794 0.021697255 0.027281126 -0.12631306
-0.115286306 -0.039810237 -0.014363072 0.01672569 0.11104113 -0.11627346 0.053605136 -0.18850599
-0.019200232 0.14410155 0.22525063 -0.00674173 0.10139184 0.034964856 0.13405327 0.059229013
0.14122896 0.21058863 -0.032447767 0.03346788 0.19665441 0.11191366 0.20830922 0.010637864
-0.12888911 0.10291101 0.018672826 -0.1653115 -0.3047605 -0.013533416 0.08333316 -0.021736275
-0.1462561 -0.042772222 -0.10070832 -0.20660856 -0.26762426 0.14615826 0.14356782 0.09446165
0.17742726 -0.0544406 0.24467282 -0.16412301 -0.19079743 -0.19995572 -0.22073439 -0.16845942
-0.1536454 0.05269751 0.016236942 -0.066329494 -0.116424724 0.17766899 -0.007995569 -0.16996238
0.21069466 -0.22658865 0.06721727 -0.17683783 0.0787763 0.17650373 -0.055048805 0.14892586
-0.17442414 -0.14017363 -0.061780605 -0.18837982 0.02126478 -0.06960154 -0.047895025 -0.14080709
-0.09176592 -0.16727561 -0.13174182 0.13875957 0.00025937372 -0.15103427 -0.11464959 -0.13575158
-0.040035084 -0.11236758 0.02991009 -0.12564003 0.12222899 -0.097646244 -0.043377165 0.118862905
-0.060154367 0.10472669 -0.1828219 0.06997499 -0.011327493 0.09447968 0.13938607 0.05968668
0.14902587 0.028190631 0.06863307 -0.03351196 -0.0892747 0.1440952 -0.094078474 0.13180411
0.030907998 -0.1124189 0.18182352 0.2475881 0.35670015 0.22291882 0.27981654 0.3501642
-0.059405953 -0.017769914 0.05715443 0.13397653 -0.047243353 0.19333884 0.012979364 -0.012581743
0.20293728 0.09313266 -0.19118714 0.03106286 0.033354137 0.04690114 -0.03038439 0.1824927
0.1896912 -0.11639486 -0.002666901 0.0783249 -0.02804426 0.019626077 0.17808878 0.12051563
-0.0014290907 -0.008843247 -0.020048046 0.26215482 0.17551251 0.18409884 0.10611559 0.20580928
0.1682395 0.22058102 0.22644623 0.008449477 0.011343475 0.0070963255 0.07724485 0.1856175
-0.20411113 0.07985615 -0.18508288 0.01601784 0.19051355 -0.04887829 0.19398554 0.12912694
-0.094334245 0.06477798 0.07917149 0.028901001 0.13058886 0.24296203 0.13224599 0.1797399
0.06921051 -0.0277882 -0.21664862 -0.15465713 -0.18300425 0.055947073 -0.18354756 0.09495876
-0.03213785 0.14864585 -0.07718472 0.16514893 0.18515739 -0.1467975 0.24469236 0.06773225
-0.1322291 0.013486975 0.22442621 -0.078003004 -0.06282901 0.06989053 -0.003157104 -0.1871992
-0.064790286 -0.1760709 0.062456 0.03870965 0.14764825 0.19252141 0.20764373 0.073240854
0.0020809683 0.13395661 -0.12347766 -0.04835718 0.13736735 0.104877666 -0.12155939 -0.17768548
0.30213293 0.22111155 0.042389143 0.16626514 -0.11471272 0.11961339 -0.22864059 -0.04273823
-0.122561745 0.2568565 0.06778928 0.012102722 -0.035226993 -0.11252457 -0.02743829 0.0021226958
-0.004950503 0.118081436 -0.14747685 -0.09565137 0.18857053 0.16002123 -0.18298525 0.023501854
-0.28808376 -0.14224876 -0.18123265 0.042529352 0.13204397 -0.1537508 -0.18812148 -0.09979331
0.64863 0.12744914 0.08993721 -0.11930546 -0.14858682 -0.04102897 0.07861948 -0.1557731
00000000: e618 273c cd8c 233e 3ef0 613e 4c6b bfbd
00000010: 2444 c73d 71be b13c ab7c df3c 3658 01be
00000020: 3a1b ecbd 0f10 23bd 1753 6bbc 5004 893c
00000030: 8869 e33d c820 eebd 0f91 5b3d b707 41be
00000040: ce49 9dbc 5b8f 133e 1aa8 663e bbe9 dcbb
00000050: 86a6 cf3d 4f37 0f3d 4345 093e 1f9a 723d
00000060: 539e 103e 8ca4 573e f3e7 04bd 9e15 093d
00000070: c65f 493e fd32 e53d 034f 553e 6f4a 2e3c
00000080: 82fb 03be 02c3 d23d c1f7 983c 6b47 29be
00000090: 9109 9cbe 43bb 5dbc 93aa aa3d 4610 b2bc
000000a0: 29c4 15be ed31 2fbd 2a40 cebd 3291 53be
000000b0: 0c06 89be 83aa 153e 7103 133e 1c75 c13d
000000c0: 7eaf 353e 1bfd 5ebd 838b 7a3e dd0f 28be
000000d0: 6760 43be 31c1 4cbe 3208 62be a080 2cbe
000000e0: 3855 1dbe 58d9 573d 5603 853c c2d7 87bd
000000f0: 1670 eebd dcee 353e d9ff 02bc 9e0a 2ebe
00000100: 57c0 573e db06 68be 35a9 893d fa14 35be
00000110: 7855 a13d 65bd 343e db7a 61bd 0580 183e
00000120: 3e9c 32be ad89 0fbe a90d 7dbd a4e6 40be
00000130: 7a33 ae3c 418b 8ebd 932d 44bd bc2f 10be
00000140: c5ef bbbd 4c4a 2bbe 54e7 06be fd16 0e3e
00000150: 8dfc 8739 baa8 1abe 67cd eabd 7602 0bbe
00000160: d4fb 23bd f920 e6bd 0106 f53c c8a7 00be
00000170: 3153 fa3d c1fa c7bd 41ac 31bd 656e f33d
00000180: 6d64 76bd f27a d63d aa35 3bbe 0c4f 8f3d
00000190: f396 39bc 907e c13d 39bb 0e3e 057a 743d
000001a0: 3d9a 183e 0af0 e63c 7f8f 8c3d d643 09bd
000001b0: a7d5 b6bd b18d 133e 37ac c0bd a8f7 063e
000001c0: c532 fd3c e13b e6bd f22f 3a3e bc87 7d3e
000001d0: 67a1 b63e d544 643e 1d44 8f3e b948 b33e
000001e0: a853 73bd 3692 91bc c31a 6a3d 2531 093e
000001f0: 3f82 41bd 9efa 453e 66a7 543c a823 4ebc
00000200: cace 4f3e 56bc be3d 90c6 43be 8a77 fe3c
00000210: 599e 083d 691b 403d afe8 f8bc 5edf 3a3e
00000220: 693e 423e 6e60 eebd 2dc7 2ebb ce68 a03d
00000230: 13bd e5bc dec6 a03c e85c 363e e6d0 f63d
00000240: 5450 bbba 44e3 10bc cd3b a4bc 2839 863e
00000250: 8db9 333e 6884 3c3e 2153 d93d abbf 523e
00000260: fa46 2c3e fedf 613e 85e1 673e ad6f 0a3c
00000270: fcd9 393c 4b88 e83b 8c32 9e3d 8412 3e3e
00000280: 8202 51be 9f8b a33d 5e86 3dbe d837 833c
00000290: fc15 433e 9a34 48bd 25a4 463e da39 043e
000002a0: 5032 c1bd 51aa 843d aa24 a23d cbc1 ec3c
000002b0: 16b9 053e 0acb 783e 7e6b 073e bd0d 383e
000002c0: 3dbe 8d3d 14a4 e3bc 23d9 5dbe 705e 1ebe
000002d0: 7765 3bbe c228 653d e4f3 3bbe bd79 c23d
000002e0: faa2 03bd 9e36 183e 0613 9ebd cd1c 293e
000002f0: e699 3d3e 1552 16be a290 7a3e 35b7 8a3d
00000300: 1167 07be 79f8 5c3c fccf 653e 0ac0 9fbd
00000310: 7fac 80bd c422 8f3d 6ae7 4ebb 26b1 3fbe
00000320: c5b0 84bd ee4b 34be ddd1 7f3d 038e 1e3d
00000330: 1a31 173e 5524 453e 8fa0 543e 4dff 953d
00000340: db60 083b ec2b 093e dbe1 fcbd 2e12 46bd
00000350: 07aa 0c3e 1aca d63d 21f4 f8bd 2ff3 35be
00000360: 2bb1 9a3e 116b 623e 3da0 2d3d 6941 2a3e
00000370: 81ee eabd ddf7 f43d c220 6abe 480e 2fbd
00000380: a701 fbbd b282 833e 1bd5 8a3d 7f4a 463c
00000390: 2e4a 10bd 4873 e6bd 44c6 e0bc ed1c 0b3b
000003a0: d437 a2bb aed4 f13d 2c04 17be dee4 c3bd
000003b0: a218 413e 9bdc 233e 7c60 3bbe f686 c03c
000003c0: b77f 93be a9a9 11be 0d95 39be 4233 2e3d
000003d0: 8936 073e da70 1dbe eba2 40be 6f60 ccbd
000003e0: 9e0c 263f 0782 023e 0031 b83d 6c56 f4bd
000003f0: 2527 18be fe0d 28bd 4003 a13d fc82 1fbe

conv1.bias f4 [31]
0.04340427 0.14376308 -0.14343937 -0.17896585 0.005716135 0.16306794 -0.11197032 0.06042565
0.07761717 0.05120865 0.012024509 0.14436004 0.13303876 -0.13044508 0.07444782 0.11517905
0.14584294 -0.20965283 0.10760789 -0.04150828 -0.18837728 0.06264576 -0.110926054 -0.0021097274
-0.10383227 -0.15596423 0.009325905 -0.0774741 0.032618824 -0.007320906 0.17765236
00000000: adc8 313d a136 133e c5e1 12be d342 37be
00000010: 6a4e bb3b 48fb 263e b250 e5bd e380 773d
00000020: c0f5 9e3d 29c0 513d 7202 453c 1ed3 133e
00000030: 503b 083e 6593 05be 1978 983d fee2 eb3d
00000040: da57 153e 3baf 56be 8761 dc3d 9604 2abd
00000050: f9e5 40be 6c4c 803d 332d e3bd 5a43 0abb
00000060: 03a6 d4bd 16b5 1fbe aecb 183c beaa 9ebd
00000070: 519b 053d 36e4 efbb 80ea 353e

bn1.weight f4 [31]
0.9505637 0.7813684 0.90565515 0.8882377 0.869521 0.8750196 0.93155074 0.8066829
1.4082365 0.99803495 1.1991299 0.8541801 0.8532314 0.94715506 0.8166206 0.8541314
0.93342745 1.1258222 0.9406939 0.8483188 0.7544932 0.80553 1.143797 0.8578709
0.870784 0.8465192 0.8492556 0.8298733 0.8656821 1.4631765 1.051242
00000000: 2558 733f c207 483f 04d9 673f 8c63 633f
00000010: ee98 5e3f 4901 603f 1c7a 6e3f c582 4e3f
00000020: 1841 b43f 387f 7f3f 177d 993f 8cab 5a3f
00000030: 5f6d 5a3f c178 723f 0c0e 513f 5ba8 5a3f
00000040: 1af5 6e3f f11a 903f 51d1 703f 6c2b 593f
00000050: 7726 413f 3737 4e3f f167 923f 6d9d 5b3f
00000060: b3eb 5e3f 7bb5 583f d168 593f 9472 543f
00000070: 589d 5d3f 5e49 bb3f 198f 863f

bn1.bias f4 [31]
-0.03923225 -0.1699092 -0.11964561 -0.03502117 -0.041246913 -0.13702473 -0.09415265 -0.15988292
-0.010075598 -0.11574483 0.1431422 -0.048000928 -0.06946361 -0.070064396 -0.0014725196 -0.085888624
0.07792809 0.050028797 0.01770099 -0.10607361 -0.20060687 -0.1559331 -0.044913054 0.0763114
-0.12455656 -0.123257436 -0.1139299 -0.057074323 -0.20568587 0.093829185 -0.16245629
00000000: ffb1 20bd adfc 2dbe c208 f5bd 5c72 0fbd
00000010: 86f2 28bd 3650 0cbe 1bd3 c0bd 59b8 23be
00000020: 1f14 25bc a00b edbd de93 123e 9f9c 44bd
00000030: f042 8ebd ec7d 8fbd 8f01 c1ba 60e6 afbd
00000040: c398 9f3d ffea 4c3d ab01 913c 1f3d d9bd
00000050: e36b 4dbe edac 1fbe c0f6 37bd 2749 9c3d
00000060: 8217 ffbd 656e fcbd 1454 e9bd c4c6 69bd
00000070: 519f 52be 8429 c03d f15a 26be

bn1.running_mean f4 [31]
0.043694343 0.1438041 -0.14344999 -0.17931889 0.005779697 0.1628603 -0.11193527 0.06077882
0.07878812 0.05195057 0.011295286 0.14440593 0.13325104 -0.12991036 0.07478211 0.115243666
0.1460146 -0.21042377 0.10800426 -0.04079955 -0.18848763 0.06315044 -0.10942515 -0.001718408
-0.10361852 -0.15597498 0.009389193 -0.07756925 0.033205714 -0.007294126 0.17876887
00000000: d7f8 323d 6241 133e 8ee4 12be 5f9f 37be
00000010: 9d63 bd3b dac4 263e 523e e5bd 36f3 783d
00000020: aa5b a13d 1fca 543d dd0f 393c 26df 133e
00000030: f672 083e 3907 05be 5d27 993d df04 ec3d
00000040: da84 153e 5479 57be 5631 dd3d 6e1d 27bd
00000050: e702 41be 0555 813d 4b1a e0bd 343c e1ba
00000060: f235 d4bd e8b7 1fbe 21d5 193c a0dc 9ebd
00000070: b702 083d 9003 efbb 300f 373e

bn1.running_var f4 [31]
0.79825675 1.478886 1.9090523 3.07069 1.4880514 0.7332183 2.7463186 1.4517622
0.4604564 0.30705085 0.47505635 4.8472114 3.041781 2.8212616 1.78514 2.049651
3.6065733 0.3815992 4.4680476 0.9377293 1.3445734 0.82312036 0.2289074 1.228848
2.7891953 1.1196419 5.944346 3.0608222 0.3467519 0.37898642 0.46690342
00000000: 8e5a 4c3f 234c bd3f d35b f43f 2f86 4440
00000010: 7878 be3f 32b4 3b3f afc3 2f40 58d3 b93f
00000020: f1c0 eb3e c535 9d3e 963a f33e 5b1c 9b40
00000030: 8aac 4240 8d8f 3440 787f e43f 7b2d 0340
00000040: 19d2 6640 f860 c33e 3ffa 8e40 070f 703f
00000050: fb1a ac3f 04b8 523f b466 6a3e e44a 9d3f
00000060: 2d82 3240 6d50 8f3f 1538 be40 83e4 4340
00000070: 7789 b13e 820a c23e f70d ef3e

conv2.weight f4 [31, 1, 1, 31]
-0.36102346 0.1715867 0.121562265 -0.0025435342 0.07382288 -0.08073489 0.1639128 -0.08802427
0.107476324 0.0018790915 -0.099714294 0.091804825 -0.15231216 0.0650646 -0.11861202 0.010627164
0.015378799 0.08061239 0.05893334 0.21601819 0.031853195 -0.35500312 -0.0064720344 -0.036578815
0.058539007 -0.16260839 0.11782571 0.2203796 -0.07826954 0.17831832 -0.085906915 0.046404917
-0.24587299 -0.027637951 -0.11906934 -0.08772941 0.28291896 -0.10649708 -0.09595456 -0.13134225
-0.028817415 0.039012883 -0.020604478 0.09730621 0.09320897 0.14678884 0.016562777 0.10532567
0.095388174 -0.12360772 0.087290406 0.095401995 0.18235274 -0.10513754 -0.03152107 0.0019178323
-0.28155586 -0.27993366 -0.0035011861 0.11574611 -0.089669235 0.004315598 0.07199268 -0.0961505
-0.0046115313 0.16111764 -0.021101167 -0.10688033 -0.060799606 -0.03424644 -0.083394185 0.18390201
-0.04717376 -0.14523788 -0.15644191 -0.17709519 0.048862107 0.13421878 0.05287595 0.13010001
-0.03217274 -0.074148476 -0.14248955 -0.04176505 0.18740904 0.22118104 0.1738277 -0.08234194
-0.1373708 -0.067296654 -0.20186882 0.024342865 0.34577498 0.082743965 -0.4703142 -0.1317898
0.051680245 -0.097463526 -0.119567685 0.033231396 0.3723954 -0.24187127 0.19941537 -0.07052105
-0.06200381 0.10876123 0.12680809 0.10229977 0.059791695 0.0383883 0.0070584132 0.020593813
-0.04807998 0.02318494 -0.0011118937 0.010953893 -0.013066246 0.059091102 -0.039886884 0.09186582
0.02636121 -0.011265618 0.2230576 0.0045359777 0.112691894 -0.1101676 -0.08608556 -0.09859774
-0.0023654366 0.09169525 0.072777696 -0.0040131835 -0.072987564 -0.14897877 0.017696999 0.18221952
-0.19309796 0.09775913 -0.038220488 0.024635645 0.2694333 -0.03319862 0.2804134 0.28261206
-0.326013 0.0074305627 -0.20947047 -0.15269352 0.025504312 0.02770861 0.14743516 -0.035326414
-0.096511036 -0.20277205 -0.16537166 -0.10987291 -0.007838931 -0.088369854 -0.1260481 0.03836941
-0.114674106 0.09316652 -0.08538361 -0.116641134 -0.038033456 -0.31589437 0.029012298 0.26750594
0.20069182 0.14747985 -0.025608573 -0.028033553 -0.15821768 -0.19794077 -0.020574212 0.06786205
-0.069373384 0.10346876 -0.07489854 0.058927685 -0.0070107267 -0.007165666 -0.0036382703 -0.47157955
-0.07721434 0.048308633 -0.20743881 0.13529713 0.013207774 -0.046017427 -0.0074620117 -0.21052654
0.13976528 0.23841028 -0.033790767 0.12873442 0.21025303 -0.080668144 -0.23339543 -0.114850044
0.078949705 0.14578204 0.045769796 0.047849264 0.046415422 0.0025424666 -0.018110793 0.054764133
0.026473586 0.059751995 -0.28801024 0.185448 0.07666821 -0.018116165 0.083814025 -0.107381
-0.3013345 -0.009875283 0.049931213 0.10588337 0.11559841 0.041580357 -0.08229801 -0.008151898
0.11741717 -0.22304396 -0.17002533 0.07825271 0.11919507 0.0892688 0.090158574 0.2502782
-0.08257634 0.05975836 -0.24016078 -0.2946003 -0.13352472 0.111653656 0.13936837 -0.038457315
-0.047264483 -0.27297798 -0.06644937 0.08684334 -0.19832261 0.18248974 -0.06017389 -0.020196706
-0.06813321 -0.08572922 0.046681907 0.04243404 0.08407104 0.04633574 0.103871584 0.058216896
00000000: 11d8 b8be 6db4 2f3e a3f5 f83d 6cb1 26bb
00000010: 7330 973d 5658 a5bd c2d8 273e 1246 b4bd
00000020: 8c1c dc3d d94b f63a 0237 ccbd 2b04 bc3d
00000030: b8f7 1bbe 9740 853d dcea f2bd 8e1d 2e3c
00000040: 5cf7 7b3c 1c18 a53d 1664 713d df33 5d3e
00000050: 7f78 023d f8c2 b5be 5c13 d4bb abd3 15bd
00000060: 99c6 6f3d d082 26be 9b4e f13d 31ab 613e
00000070: c84b a0bd 1499 363e f7ef afbd 1513 3e3d
00000080: 21c6 7bbe fc68 e2bc a0da f3bd 7aab b3bd
00000090: c1da 903e 241b dabd d383 c4bd 957e 06be
000000a0: 8012 ecbc f9cb 1f3d b9ca a8bc 7a48 c73d
000000b0: 58e4 be3d d04f 163e a9ae 873c fcb4 d73d
000000c0: e05a c33d 0b26 fdbd 50c5 b23d 1f62 c33d
000000d0: adba 3a3e 5a52 d7bd 3d1c 01bd c65f fb3a
000000e0: 1728 90be 7753 8fbe 2874 65bb 4c0c ed3d
000000f0: 81a4 b7bd dc69 8d3b e670 933d 8eea c4bd
00000100: 541c 97bb 06fc 243e 5bdc acbc 13e4 dabd
00000110: 0209 79bd ff45 0cbd 92ca aabd cf50 3c3e
00000120: 4639 41bd 3db9 14be 4f32 20be 7158 35be
00000130: a223 483d a670 093e 7494 583d f038 053e
00000140: 90c7 03bd 28db 97bd c8e8 11be d411 2bbd
00000150: 28e8 3f3e 487d 623e e3ff 313e e4a2 a8bd
00000160: eeaa 0cbe d4d2 89bd b3b6 4ebe b06a c73c
00000170: 6b09 b13e ab75 a93d 06cd f0be e8f3 06be
00000180: aaae 533d f59a c7bd e7df f4bd a51d 083d
00000190: 9caa be3e 1aad 77be 8b33 4c3e 576d 90bd
000001a0: b5f7 7dbd 35be de3d fbd9 013e 8b82 d13d
000001b0: 23e8 743d 0d3d 1d3d 434a e73b 5bb4 a83c
000001c0: 83ef 44bd 58ee bd3c f6bc 91ba f577 333c
000001d0: cf13 56bc 8309 723d 6e60 23bd 2624 bc3d
000001e0: 77f3 d73c 6d93 38bc 3669 643e 8aa2 943b
000001f0: 02cb e63d 8d9f e1bd a04d b0bd 9ded c9bd
00000200: 7105 1bbb b8ca bb3d 790c 953d 0681 83bb
00000210: 817a 95bd e48d 18be 4cf9 903c c197 3a3e
00000220: 79bb 45be f035 c83d 168d 1cbd b1d0 c93c
00000230: 29f3 893e 47fb 07bd 5892 8f3e 87b2 903e
00000240: 2deb a6be 147c f33b 6d7f 56be b15b 1cbe
00000250: 6bee d03c 2bfd e23c 3ef9 163e 6eb2 10bd
00000260: 94a7 c5bd 7aa3 4fbe 3057 29be 0c05 e1bd
00000270: dc6e 00bc 41fb b4bd c112 01be 3e29 1d3d
00000280: 42da eabd 17ce be3d 9add aebd 8ce1 eebd
00000290: f8c8 1bbd e8bc a1be 33ab ed3c 8af6 883e
000002a0: 2882 4d3e f504 173e 12c9 d1bc 9fa6 e5bc
000002b0: d103 22be fcb0 4abe 408b a8bc 42fb 8a3d
000002c0: a213 8ebd 6ee7 d33d 6864 99bd 285e 713d
000002d0: 3dba e5bb f7cd eabb 0c70 6ebb e072 f1be
000002e0: 8d22 9ebd 46df 453d d76a 54be 558b 0a3e
000002f0: 6b65 583c c57c 3cbd e483 f4bb 4594 57be
00000300: a11e 0f3e d321 743e 3068 0abd f5d2 033e
00000310: 924c 573e 5735 a5bd 36ff 6ebe 8036 ebbd
00000320: 62b0 a13d e347 153e 1c79 3b3d 97fd 433d
00000330: 191e 3e3d 839f 263b 165d 94bc 5b50 603d
00000340: 22df d83c 82be 743d 1476 93be 15e6 3d3e
00000350: 3904 9d3d 5a68 94bc b0a6 ab3d 92ea dbbd
00000360: 8448 9abe f0cb 21bc ac84 4c3d 61d9 d83d
00000370: dcbe ec3d 2a50 2a3d dc8b a8bd 8a8f 05bc
00000380: 6a78 f03d a365 64be 1f1b 2ebe f542 a03d
00000390: 8b1c f43d 90d2 b63d 0fa5 b83d 7724 803e
000003a0: c91d a9bd 2fc5 743d b5ec 75be dad5 96be
000003b0: b4ba 08be acaa e43d 95b6 0e3e 6b85 1dbd
000003c0: 6798 41bd c5c3 8bbe 9b16 88bd ecda b13d
000003d0: 1515 4bbe 97de 3a3e e678 76bd 9073 a5bc
000003e0: 6d89 8bbd cd92 afbd 8735 3f3d 51cf 2d3d
000003f0: 702d ac3d 8bca 3d3d a0ba d43d d774 6e3d

conv2.bias f4 [31]
-0.09240007 -0.039134704 -0.14596535 0.14349629 -0.0157799 -0.06905881 0.14256245 0.16070643
0.013216225 -0.124736324 0.14630096 -0.0050394684 -0.0888249 -0.1268573 -0.15536493 -0.19249609
-0.14449517 -0.15730453 -0.13530205 0.019182615 -0.14691423 -0.014296726 -0.02093964 0.14934492
0.22092052 0.032809295 -0.14554034 -0.20520735 -0.11102489 0.0639552 0.058425665
00000000: 3f3c bdbd b64b 20bd f177 15be b1f0 123e
00000010: d944 81bc b56e 8dbd e4fb 113e 3a90 243e
00000020: de88 583c c275 ffbd ebcf 153e 2022 a5bb
00000030: d4e9 b5bd e1e6 01be fc17 1fbe b21d 45be
00000040: 8bf6 13be 7014 21be 9f8c 0abe dc24 9d3c
00000050: af70 16be d13c 6abc 9c89 abbc e0ed 183e
00000060: fd38 623e 0a63 063d 8708 15be e021 52be
00000070: 0461 e3bd f2fa 823d c04f 6f3d

bn2.weight f4 [31]
1.1916784 0.770077 1.0016302 1.1530483 1.0858567 1.2010775 1.1690041 0.97074103
0.94412845 1.0873971 1.0924841 0.84528536 0.7761838 1.2357982 1.0648229 1.0493293
0.9244186 0.7073888 1.3353893 0.7331878 0.6993896 0.8965836 1.0202359 0.68671954
0.7640244 1.0946652 1.015906 1.0118837 0.86984646 0.8593728 0.64513916
00000000: eb88 983f c423 453f 6b35 803f 1697 933f
00000010: 5afd 8a3f e8bc 993f eda1 953f 7c82 783f
00000020: 67b2 713f d42f 8b3f 85d6 8b3f 9f64 583f
00000030: fbb3 463f a32e 9e3f 1e4c 883f 6c50 863f
00000040: b3a6 6c3f 6f17 353f 09ee aa3f 32b2 3b3f
00000050: 320b 333f 8186 653f 1797 823f dacc 2f3f
00000060: 1a97 433f fd1d 8c3f 3509 823f 6885 813f
00000070: 42ae 5e3f dbff 5b3f d727 253f

bn2.bias f4 [31]
0.37047732 -0.6889049 -0.4566305 0.07534288 0.19936186 0.12419875 -0.26138535 0.11322653
-0.33934924 -0.16718163 -0.16253155 -0.19936825 -0.23257098 0.124727845 0.17314725 -0.08097946
-0.29053158 -0.15668763 -0.17580469 -0.27243087 -0.367581 -0.12688565 -0.20806299 -0.3441401
-0.26515025 -0.23893838 -0.2399003 -0.052272778 -0.43026784 -0.08774479 -0.46145478
00000000: 34af bd3e 125c 30bf 79cb e9be 5e4d 9a3d
00000010: 8425 4c3e ea5b fe3d 4dd4 85be 50e3 e73d
00000020: 2fbf adbe a931 2bbe ac6e 26be 3127 4cbe
00000030: 1627 6ebe 5071 ff3d 834d 313e 8fd8 a5bd
00000040: 8ec0 94be b972 20be 2506 34be 0f7c 8bbe
00000050: 9433 bcbe 50ee 01be 770e 55be 2233 b0be
00000060: c6c1 87be 43ac 74be 6da8 75be fb1b 56bd
00000070: 114c dcbe 8ab3 b3bd cd43 ecbe

bn2.running_mean f4 [31]
0.010289937 -0.24189535 0.046501826 0.4786891 0.0579908 -0.24375612 0.25879437 0.050604083
-0.048362486 -0.4835955 -0.0871586 -0.28669116 -0.0640464 -0.29323265 -0.49222332 -0.10910352
-0.32426593 -0.5246913 0.027814725 -0.11152886 -0.36320984 0.21184829 -0.00070492236 0.30164918
0.12510727 0.22526635 -0.14016314 -0.10662747 -0.1531603 -0.0547804 -0.2123164
00000000: 2097 283c 6ab3 77be b378 3e3d bd16 f53e
00000010: c387 6d3d 349b 79be b280 843e 3a46 4f3d
00000020: be17 46bd d499 f7be 3580 b2bd 2fc9 92be
00000030: c22a 83bd 9722 96be b204 fcbe ab71 dfbd
00000040: 2f06 a6be 2b52 06bf b5db e33c 3e69 e4bd
00000050: a4f6 b9be c2ee 583e 8aca 38ba c371 9a3e
00000060: 1f1c 003e 39ac 663e ed86 0fbe 815f dabd
00000070: 0ed6 1cbe 6a61 60bd 7869 59be

bn2.running_var f4 [31]
0.2536614 0.2523233 0.30525863 0.19833094 0.23271248 0.109556735 0.09139258 0.23832813
0.07056679 0.08689111 0.13750774 0.22280814 0.27004382 0.14112115 0.14824536 0.1976397
0.08620153 0.39086047 0.11792601 0.16755363 0.16162317 0.2087743 0.06635907 0.19556133
0.20400679 0.19686742 0.1227817 0.09463152 0.16353112 0.22294153 0.38037026
00000000: e8df 813e 8530 813e dc4a 9c3e 4417 4b3e
00000010: 2e4c 6e3e 485f e03d 082c bb3d 4a0c 743e
00000020: 5285 903d f7f3 b13d d4ce 0c3e d127 643e
00000030: 2f43 8a3e 1082 103e a2cd 173e 1062 4a3e
00000040: 6e8a b03d dd1e c83e 3183 f13d 2e93 2b3e
00000050: 8b80 253e eec8 553e 44e7 873d 3b41 483e
00000060: 28e7 503e 9d97 493e f974 fb3d 2cce c13d
00000070: b474 273e c94a 643e e4bf c23e

fc1.weight f4 [128, 314]
-0.07450867 0.013685218 0.0136828255 -0.034257807 0.022000618 0.059205126 -0.0054085827 -0.07512218
-0.0526401 -0.009882465 -0.036867496 0.031937584 0.04274488 -0.005180738 -0.032914322 0.011346096
0.047180966 -0.072595805 -0.04804178 -0.15313655 -0.105674855 -0.056958653 0.061311156 -0.035225928
-0.03700169 -0.072837956 0.028601121 0.014000164 0.06380016 -0.06059842 -0.12713231 -0.2227795
-0.067040235 -0.036157496 -0.03908983 -0.12465168 -0.019710736 -0.08091472 -0.04324579 0.06550927
0.0054992004 -0.059061226 -0.12921372 -0.020292364 -0.08811589 0.102305636 -0.121673256 -0.07345032
0.047449656 0.14708066 -0.09692033 -0.08811257 -0.0045411354 0.09333792 0.016251259 0.04793679
-0.04462714 -0.19647354 0.033150025 0.0019535415 -0.046764664 -0.12685207 0.08099992 0.030007841
0.0067438963 0.023300942 -0.0196759 -0.06868677 0.08752972 -0.07269991 0.023014102 -0.07736809
0.05367263 -0.054783754 0.041295815 0.24760073 -0.025103085 0.03273416 0.10711121 -0.060731318
-0.1490959 0.00314782 0.12419668 0.14991684 0.03375744 0.0039905673 -0.20011054 -0.11182032
0.07349886 -0.042800147 0.043887828 -0.11301744 0.103745446 0.027216675 0.026474088 -0.06973123
0.060133684 -0.036871552 -0.0876858 -0.015938642 -0.005010266 -0.10286759 0.14149228 -0.114452966
-0.08185085 -0.07027183 0.058033783 -0.04234723 0.048617013 -0.086686894 0.023186468 0.072378695
-0.052459292 -0.060978357 -0.024333874 -0.040651992 -0.079684295 -0.114969134 0.06775085 -0.10814551
0.12915865 -0.002691008 -0.12200544 0.042916436 -0.069605 0.10187078 -0.03372524 -0.029456597
-0.057613295 -0.080702595 -0.025177585 -0.093815275 0.04190082 0.025180858 -0.12396291 -0.01731733
-0.002156858 -0.051508475 -0.07078522 0.14547025 0.009267685 -0.019426607 0.02603772 -0.056974392
0.04377059 0.07023309 0.010726619 -0.03131172 -0.058947746 -0.22468024 0.117870435 0.050409213
-0.04283501 -0.06859845 0.01565526 -0.06654455 0.010496042 0.12545808 0.009603064 0.07177229
0.009252691 -0.04515053 -0.045474403 -0.066968866 -0.025120553 -0.08163401 -0.09226278 0.05077868
-0.008051708 -0.37200928 0.02336857 -0.004295486 -0.038097925 0.110925086 -0.0012710711 -0.06397846
0.03285052 -0.088759646 0.08171637 -0.02566276 0.057897523 0.010950341 -0.15752599 -0.03242063
0.039950654 -0.05961938 -0.04021999 -0.021049751 -0.04223283 0.24066377 0.029150572 0.025731284
-0.0048137563 0.20533672 0.011261692 0.09897537 0.0953446 -0.019022973 -0.034136396 0.0038778018
-0.017102681 -0.006249149 -0.16263586 -0.011740486 -0.022343304 0.08350511 -0.016769582 -0.039582558
-0.07509088 0.13050635 -0.012170301 -0.041554563 -0.31740376 -0.09765527 0.057480652 0.083802685
0.08294951 0.02703205 0.037246514 0.13655731 0.09140533 0.038698137 -0.07231447 -0.10196816
0.042858254 0.06329724 0.0082277255 -0.24723135 -0.020220539 -0.099083945 -0.011714853 0.10500293
0.013405483 0.07223603 0.08681099 0.016561573 0.03827366 -0.029993976 0.07363016 -0.0096349055
-0.028364437 -0.0054446105 0.0074404003 0.064148456 -0.07752693 -0.073144615 0.07482261 -0.091120586
0.014339206 -0.008088696 0.04998457 -0.023532892 0.10001523 0.12211227 0.011322004 0.061580796
00000000: 0098 98bd f737 603c ee2d 603c ea51 0cbd
00000010: a43a b43c 1381 723d 7b3a b1bb a8d9 99bd
00000020: 259d 57bd 10ea 21bc 5f02 17bd fcd0 023d
00000030: 4115 2f3d 2ec3 a9bb 2bd1 06bd fae4 393c
00000040: d440 413d 1cad 94bd 75c7 44bd d4cf 1cbe
00000050: 0f6c d8bd 7a4d 69bd 6821 7b3d 1049 10bd
00000060: 168f 17bd 112c 95bd e64c ea3c f260 653c
00000070: a9a9 823d 0d36 78bd f92e 02be 4f20 64be
00000080: 644c 89bd e219 14bd a81c 20bd 6149 ffbd
00000090: 6978 a1bc 9eb6 a5bd 7f22 31bd b929 863d
000000a0: a332 b43b 2fea 71bd 9a50 04be 2c3c a6bc
000000b0: 1b76 b4bd 9e85 d13d d42f f9bd 1f6d 96bd
000000c0: 925a 423d 509c 163e 2a7e c6bd 5d74 b4bd
000000d0: cecd 94bb f427 bf3d 5c21 853c 5e59 443d
000000e0: f3ca 36bd 5c30 49be 52c8 073d fd06 003b
000000f0: 4e8c 3fbd 82e5 01be 49e3 a53d 01d3 f53c
00000100: e7fb dc3b 9ee1 be3c 5a2f a1bc a6ab 8cbd
00000110: c842 b33d b1e3 94bd 1288 bc3c 2973 9ebd
00000120: d5d7 5b3d ee64 60bd cd25 293d 0c8b 7d3e
00000130: fca4 cdbc 4114 063d 1f5d db3d 67c1 78bd
00000140: 98ac 18be a84b 4e3b d45a fe3d cd83 193e
00000150: 3e45 0a3d 4ec3 823b c7e9 4cbe 0d02 e5bd
00000160: 9286 963d 354f 2fbd b9c3 333d b075 e7bd
00000170: 7e78 d43d 81f5 de3c 30e0 d83c 3fcf 8ebd
00000180: bd4e 763d a006 17bd 9d94 b3bd c191 82bc
00000190: 282d a4bb 3eac d2bd 5ae3 103e 5166 eabd
000001a0: 6ba1 a7bd adea 8fbd d5b4 6d3d 4a74 2dbd
000001b0: a222 473d e688 b1bd 8cf1 bd3c 483b 943d
000001c0: 8edf 56bd 71c4 79bd d557 c7bc b482 26bd
000001d0: 8531 a3bd f074 ebbd f5c0 8a3d 657b ddbd
000001e0: 2a42 043e 9f5b 30bb fddd f9bd 25c9 2f3d
000001f0: 118d 8ebd a1a1 d03d 7a23 0abd f64e f1bc
00000200: ebfb 6bbd 6747 a5bd 3941 cebc 3922 c0bd
00000210: 32a0 2b3d 1648 ce3c 44e0 fdbd 13dd 8dbc
00000220: 135a 0dbb 8dfa 52bd d7f7 90bd 27f6 143e
00000230: 7dd7 173c 8c24 9fbc 0e4d d53c fb5d 69bd
00000240: ca48 333d 5ed6 8f3d b3be 2f3c b840 00bd
00000250: 3173 71bd 9412 66be 0e66 f13d e479 4e3d
00000260: c373 2fbd 587d 8cbd 763f 803c 8248 88bd
00000270: 97f7 2b3c 1578 003e 2b56 1d3c 5afd 923d
00000280: 9998 173c c3ef 38bd 5e43 3abd f926 89bd
00000290: 9ec9 cdbc bb2f a7bd 45f4 bcbd 4efd 4f3d
000002a0: 50eb 03bc 0078 bebe 716f bf3c 26c1 8cbb
000002b0: 920c 1cbd b12c e33d 129a a6ba 2407 83bd
000002c0: 448e 063d 9ec7 b5bd ea5a a73d b53a d2bc
000002d0: f425 6d3d 0f69 333c 7e4e 21be 7fcb 04bd
000002e0: 4ca3 233d 7333 74bd b7bd 24bd 8770 acbc
000002f0: 55fc 2cbd 9070 763e 2ecd ee3c 6aca d23c
00000300: b7bc 9dbb ca43 523e f682 383c 99b3 ca3d
00000310: 0844 c33d 11d6 9bbc 9bd2 0bbd b822 7e3b
00000320: ec1a 8cbc a9c5 ccbb 048a 26be 2b5b 40bc
00000330: 4e09 b7bc ba04 ab3d 5d60 89bc 5221 22bd
00000340: 3fc9 99bd 75a3 053e f165 47bc 1e35 2abd
00000350: bf82 a2be 7cff c7bd d570 6b3d bea0 ab3d
00000360: 6fe1 a93d 5172 dd3c cd8f 183d aed5 0b3e
00000370: b832 bb3d f081 1e3d 9c19 94bd afd4 d0bd
00000380: 238c 2f3d fca1 813d 95cd 063c 372a 7dbe
00000390: 8ba5 a5bc 86ec cabd a8ef 3fbc c70b d73d
000003a0: aca2 5b3c 7cf0 933d f6c9 b13d 23ac 873c
000003b0: d7c4 1c3d edb5 f5bc 69cb 963d b9db 1dbc
000003c0: 895c e8bc b468 b2bb 9ace f33b 4460 833d
000003d0: 70c6 9ebd d8cc 95bd 993c 993d 6e9d babd
000003e0: fdee 6a3c 7386 04bc 9fbc 4c3d 0dc8 c0bc
000003f0: c9d4 cc3d ff15 fa3d ed7f 393c 253c 7c3d

fc1.bias f4 [128]
0.03342994 0.044527363 -0.051068343 -0.021777866 0.050489042 -0.028422054 -0.030349122 0.050456386
-0.031589206 0.019392781 0.024427783 -0.04367815 -0.04208953 -0.01929863 0.027628787 -0.038906086
-0.0632651 -0.056518387 0.029992042 -0.005288771 0.0069090193 0.024336731 0.03376845 -0.020838894
-0.0013328718 -0.028060032 -0.026245458 -0.03884314 0.0109034125 0.012209169 -0.033831984 -0.02723266
-0.027058898 -0.0076189768 -0.028138166 0.011032973 -0.06286694 -0.033271115 -0.021013884 -0.00321839
-0.019359982 0.047180027 -0.05743151 0.0057937438 -0.054328006 -0.016210102 -0.0053325486 -0.046370942
0.032445736 -0.031713173 -0.03159647 -0.028546859 -0.05358596 -0.034782346 -0.04711403 -0.004810219
0.03464983 0.008328807 0.0019287585 -0.0024281004 0.01580465 0.043026567 0.038460594 -0.0344518
-0.04439489 0.04491183 -0.014417577 0.035623804 -0.05228016 0.019402694 -0.040308427 0.04663329
-0.02521975 0.011339304 0.034355816 0.013026398 -0.0427299 -0.04329978 0.0341455 -0.0041103843
-0.0048801764 0.03396763 -0.06408812 -0.021610957 0.050973874 -0.021745387 0.035732064 0.012488894
-0.00029750163 -0.031015068 0.049136445 0.001226637 -0.06758533 -0.023016943 -0.054860577 -0.016402256
0.035963733 -0.03314816 0.00057785626 -0.041435182 0.023764092 0.0076333964 0.04232886 0.048929982
0.037137873 -0.055308066 0.04791591 -0.007115272 0.03851252 0.036766797 0.01757748 0.020302566
0.0537244 0.032842893 0.029225111 0.031144535 0.04616705 -0.042203423 -0.03237688 -0.025161887
0.04702744 -0.010585165 -0.038981725 -0.043518174 -0.031826444 -0.05847687 0.026683273 0.02745498
00000000: d5ed 083d 5362 363d 0a2d 51bd 7f67 b2bc
00000010: 99cd 4e3d 5ed5 e8bc b99e f8bc 5bab 4e3d
00000020: af63 01bd 9cdd 9e3c c61c c83c dce7 32bd
00000030: 1266 2cbd 2918 9ebc c455 e23c fd5b 1fbd
00000040: 2291 81bd d37f 67bd dfb1 f53c 6d4d adbb
00000050: 0e65 e23b d35d c73c c950 0a3d 54b6 aabc
00000060: c2b3 aeba 27de e5bc b700 d7bc fc19 1fbd
00000070: 3aa4 323c f708 483c 6893 0abd 0717 dfbc
00000080: 9faa ddbc 9ca8 f9bb 0382 e6bc a5c3 343c
00000090: 62c0 80bd 4b47 08bd 4f25 acbc a0eb 52bb
000000a0: d398 9ebc d83f 413d 4e3d 6bbd 72d9 bd3b
000000b0: 0b87 5ebd 0ccb 84bc a9bc aebb 75ef 3dbd
000000c0: d2e5 043d ace5 01bd 4d6b 01bd 1adb e9bc
000000d0: f47c 5bbd ef77 0ebd a4fa 40bd 0b9f 9dbb
000000e0: fbec 0d3d 8c75 083c 65ce fc3a c420 1fbb
000000f0: c178 813c a03c 303d db88 1d3d 551d 0dbd
00000100: 6bd7 35bd 78f5 373d b337 6cbc 44ea 113d
00000110: b923 56bd 66f2 9e3c 731a 25bd 8c02 3f3d
00000120: a699 cebc 7dc8 393c afb8 0c3d ac6c 553c
00000130: 8c05 2fbd 1c5b 31bd 27dc 0b3d 67b0 86bb
00000140: e3e9 9fbb a421 0b3d a240 83bd 7609 b1bc
00000150: fbc9 503d 6223 b2bc c95b 123d 389e 4c3c
00000160: fef9 9bb9 5013 febc 4c43 493d 1cc7 a03a
00000170: 2d6a 8abd 078e bcbc 7cb5 60bd 065e 86bc
00000180: b54e 133d 5dc6 07bd 477b 173a f0b7 29bd
00000190: eaac c23c 9221 fa3b 0761 2d3d ce6a 483d
000001a0: e21d 183d b68a 62bd 7943 443d 3a27 e9bb
000001b0: 4ebf 1d3d c898 163d a6fe 8f3c 9151 a63c
000001c0: 1e0e 5c3d 4586 063d 8069 ef3c d322 ff3c
000001d0: a919 3d3d 7fdd 2cbd 9f9d 04bd 4d20 cebc
000001e0: d89f 403d 666d 2dbc 4dab 1fbd 1d40 32bd
000001f0: 725c 02bd 7185 6fbd e196 da3c 44e9 e03c

fc2.weight f4 [1, 128]
-0.027500758 -0.014245218 0.018209182 -0.081969626 0.022537226 0.029414145 -0.022556588 -0.045917246
-0.07012852 0.023861203 -0.0769277 -0.025093613 -0.050302412 -0.04341 -0.016780032 0.036625195
-0.039031506 -0.09667061 0.032658 0.021969123 0.006733827 -0.035772644 -0.06189742 -0.020963458
0.027173866 -0.032886714 -0.03833975 0.0709601 -0.032887794 0.026452059 -0.037534356 0.025591655
-0.01533532 -0.03174178 -0.032612752 -0.033480387 -0.06530198 0.020005088 -0.031577483 0.033092182
-0.046676863 -0.037812497 0.020673774 -0.061200228 -0.024617705 -0.08512174 0.013576057 0.024003696
0.024994766 0.0325182 -0.0234273 -0.056582026 -0.023582013 0.013175614 0.030837396 0.017008256
0.02581566 -0.035954013 -0.039866857 -0.013002409 -0.034180608 0.023149647 -0.0369427 -0.030112939
0.043711253 0.020474171 -0.028340327 -0.046695128 -0.028455911 -0.07811231 -0.013932004 0.018722024
-0.02784233 0.02668208 0.023096045 0.025258517 -0.036864415 -0.049165547 0.018980427 0.038291104
0.027965 -0.060563654 0.028563099 -0.04863422 -0.01844184 -0.034775704 0.027988847 0.0087389955
0.027950466 0.017925525 -0.062002636 0.035158616 -0.028299542 0.021660488 -0.0531771 -0.029893123
-0.033437032 -0.019151686 -0.028853755 0.021165699 -0.025814116 -0.05397096 -0.024511166 -0.023096137
-0.05275895 0.05530675 -0.05648438 0.03272192 -0.027148841 -0.040453244 -0.06658572 -0.025770407
0.02378283 -0.021785663 0.0324082 -0.038506456 -0.018430041 -0.020682303 0.028479934 0.036479536
0.030440984 0.035451584 0.025481414 -0.021114152 0.01618671 -0.020224186 -0.040680617 0.019910937
00000000: 4549 e1bc c664 69bc 6c2b 953c b1df a7bd
00000010: fd9f b83c eff5 f03c 98c8 b8bc b913 3cbd
00000020: 8b9f 8fbd 9278 c33c 458c 9dbd 1f91 cdbc
00000030: e709 4ebd afce 31bd 4776 89bc 4d04 163d
00000040: 80df 1fbd 3efb c5bd 65c4 053d 97f8 b33c
00000050: 6fa7 dc3b 5686 12bd 2688 7dbd 8fbb abbc
00000060: ba9b de3c 38b4 06bd 240a 1dbd 8753 913d
00000070: 5ab5 06bd fdb1 d83c a0bd 19bd 97a5 d13c
00000080: fe40 7bbc ab03 02bd f394 05bd bb22 09bd
00000090: 0bbd 85bd b6e1 a33c 6457 01bd ab8b 073d
000000a0: 3d30 3fbd 47e1 1abd 0c5c a93c 17ad 7abd
000000b0: 12ab c9bc 4f54 aebd 1c6e 5e3c 66a3 c43c
000000c0: d3c1 cc3c ce31 053d 9cea bfbc 8ec2 67bd
000000d0: 112f c1bc 88de 573c b59e fc3c e654 8b3c
000000e0: 5d7b d33c 8444 13bd 6e4b 23bd 0e08 55bc
000000f0: f700 0cbd 54a4 bd3c 3b51 17bd 69af f6bc
00000100: 920a 333d 73b9 a73c f929 e8bc 6443 3fbd
00000110: 5f1c e9bc 59f9 9fbd 0f43 64bc ee5e 993c
00000120: 9915 e4bc 6194 da3c eb33 bd3c f3ea ce3c
00000130: 24ff 16bd d061 49bd d77c 9b3c 22d7 1c3d
00000140: db16 e53c 9811 78bd 29fd e93c ad34 47bd
00000150: 5713 97bc f870 0ebd de48 e53c 012e 0f3c
00000160: 60f8 e43c 8dd8 923c 7af6 7dbd 7b02 103d
00000170: 71d4 e7bc 5671 b13c 3bd0 59bd 6ce2 f4bc
00000180: 45f5 08bd ffe3 9cbc b65e ecbc b063 ad3c
00000190: 2078 d3bc a710 5dbd a4cb c8bc 1c34 bdbc
000001a0: c519 58bd 5589 623d 2a5c 67bd 6c07 063d
000001b0: 3f67 debc 4db2 25bd 185e 88bd 761c d3bc
000001c0: 36d4 c23c d977 b2bc 76be 043d f2b8 1dbd
000001d0: 99fa 96bc ef6d a9bc c04e e93c 916b 153d
000001e0: 5f5f f93c ae35 113d 66be d03c 96f7 acbc
000001f0: fe99 843c 31ad a5bc b8a0 26bd 431c a33c
