History/Comp_Only_1207/model_Xian/uts_model.pth (torch, 176012 bytes, 15 tensors)

conv1.weight f4 [31, 1, 1, 31]
0	0x3e18f330	0.14936519
1	0x3e43f5f9	0.191368
2	0x3e5cf431	0.21577527
3	0xbd8c3b14	-0.06847206
4	0x3e0ed997	0.13950191
5	0x3cab1a8c	0.020886682
6	0x3c8193ba	0.015817512
7	0xbe3e4a44	-0.18583018
8	0xbdcc7688	-0.099835455
9	0xbdb8e8c2	-0.0902877
10	0x3c970ffd	0.018440241
11	0x3ce83ba8	0.028348759
12	0x3de556e2	0.11198212
13	0xbdd2a5d4	-0.102855355
14	0x3dcc1332	0.09964599
15	0xbe13a9d2	-0.1442025
16	0x3b58fc25	0.0033109274
17	0x3de8927a	0.11356063
18	0x3e53d3df	0.20686291
19	0x3c1c8026	0.009552037
20	0x3e0a2edc	0.13494438
21	0x3d06a0ed	0.032868315
22	0x3e15a7a0	0.14614725
23	0x3d6c62ef	0.057711538
24	0x3e1395be	0.14412591
25	0x3e462cf1	0.19353081
26	0xbd4c443b	-0.049869757
27	0x3d0cfec7	0.034422662
28	0x3e318da3	0.17339186
29	0x3da2276a	0.07917674
30	0x3e809b32	0.25118405
31	0xbe2846df	-0.16433285
32	0xbe170545	-0.14748104
33	0x3d71f476	0.059071027
34	0x3dd378b1	0.103257544
35	0xbe37a4b1	-0.17933919
36	0xbe9b75a5	-0.30363193
37	0xbd44d5e6	-0.048055552
38	0x3d04df0e	0.032439284
39	0xbd4b8975	-0.049691636
40	0xbe22aaa0	-0.15885401
41	0xbc4390d4	-0.011936385
42	0xbd67f2c5	-0.056628007
43	0xbe01ec45	-0.12687786
44	0xbe058519	-0.13039054
45	0x3e4d00ee	0.20019886
46	0x3e51383e	0.20431611
47	0x3e1e4796	0.15456995
48	0x3e497f8f	0.19677566
49	0xbd247ffa	-0.04016111
50	0x3e74a88c	0.2389242
51	0xbe3fccc4	-0.18730456
52	0xbdd9f3df	-0.10642218
53	0xbe373670	-0.1789186
54	0xbe50c55b	-0.20387785
55	0xbd24da53	-0.040247273
56	0xbe16230a	-0.14661804
57	0x3d780b55	0.060557682
58	0x3d2c704d	0.042099286
59	0xbd89512c	-0.067049354
60	0xbdc47590	-0.09592736
61	0x3e0ae1eb	0.13562743
62	0x3e945425	0.28970447
63	0xbe43be25	-0.19115503
64	0x3e197226	0.1498495
65	0xbe20a746	-0.1568881
66	0x3d51c8a7	0.051216748
67	0xbe3574fa	-0.17720404
68	0xbc2bfe25	-0.0104976045
69	0x3e0a3b30	0.1349914
70	0xbdb82849	-0.08992059
71	0x3e5e71a9	0.21723045
72	0xbdcebcdc	-0.10094616
73	0xbd86b94e	-0.06578313
74	0xbca3f3dc	-0.020013742
75	0xbdf679bd	-0.120349385
76	0x3df37499	0.118874736
77	0x3c9ddd09	0.019270437
78	0x3ccd6222	0.025071207
79	0xbd7d04d4	-0.061772183
80	0xbd8bcbcc	-0.068259805
81	0xbe2f0ac2	-0.17093948
82	0xbe1f69fd	-0.15567775
83	0x3e2b7248	0.16742814
84	0x3cc5ed6d	0.024161065
85	0xbdfa06cb	-0.12208327
86	0xbd61e411	-0.05514914
87	0xbde223db	-0.11041995
88	0xbc69fa89	-0.014280924
89	0xbd980d1b	-0.07424375
90	0x3ca9f85e	0.020748314
91	0xbdf144bc	-0.11780688
92	0x3db6418e	0.08899222
93	0xbf112b3b	-0.5670659
94	0xbdd4a06f	-0.10382163
95	0x3d8f5072	0.069977656
96	0x3ae5bab7	0.0017526959
97	0x3d20f69e	0.039297692
98	0xbe13a3be	-0.14417931
99	0x3d9080ab	0.070557915
100	0xbc2ccabb	-0.010546382
101	0x3da565dd	0.080760695
102	0x3dbf8734	0.0935196
103	0xbcc54529	-0.02408083
104	0x3e1aea68	0.15128481
105	0xbcd74972	-0.026280139
106	0xbcc84ec7	-0.024451626
107	0xbd37ced0	-0.044874966
108	0xbe16fba1	-0.14744426
109	0x3da900a3	0.082520746
110	0xbde4dc8a	-0.11174877
111	0x3dc32e63	0.09530332
112	0x3d81ff16	0.06347482
113	0xbe276a12	-0.16349056
114	0xbc1a588e	-0.009420527
115	0x3dc58364	0.096442014
116	0x3e25207e	0.16125676
117	0x3de06ea4	0.10958603
118	0x3dc24a13	0.09486785
119	0x3e2a44bd	0.16627784
120	0xbe446125	-0.19177683
121	0xbcfc520c	-0.030800842
122	0x3d2e0220	0.042482495
123	0x3d893c9b	0.06701013
124	0xbe11e1e2	-0.14246324
125	0x3e060bef	0.1309049
126	0xbd039939	-0.032128546
127	0xbc6a0ec0	-0.014285743
128	0x3e0f0231	0.1396568
129	0x3cb4faaa	0.022092182
130	0xbe829061	-0.25500777
131	0xbd2a38d6	-0.04155811
132	0x3be802c3	0.0070804073
133	0x3e3c4c1e	0.18388411
134	0xbd4b2cae	-0.049603157
135	0x3e6d0cbc	0.23149389
136	0x3e6e7dac	0.23290128
137	0xbdbb449a	-0.09143944
138	0x3d3ec4b6	0.046574317
139	0x3d997aaf	0.07494103
140	0x3c999a3a	0.018750299
141	0x3dfbe3f1	0.12299336
142	0x3e176575	0.14784797
143	0x3db76747	0.089552455
144	0xbd8412db	-0.06448909
145	0xbc12aa9e	-0.008951811
146	0xbd7fabe6	-0.062419794
147	0x3e7c89f1	0.24661995
148	0x3e47750c	0.19478244
149	0x3e31e540	0.17372608
150	0x3dc4e163	0.096133016
151	0x3e6b2a6f	0.22965406
152	0x3d954947	0.07289367
153	0x3df34ec2	0.11880256
154	0x3e33b29b	0.17548601
155	0x3cb3b92d	0.021938885
156	0x3d0c1c31	0.034206573
157	0x3c0a8dab	0.008456628
158	0x3e111912	0.1416972
159	0x3e599fb1	0.21252324
160	0xbda77256	-0.08176105
161	0x3e08a635	0.13344653
162	0xbe287860	-0.1645217
163	0x3d745452	0.059650727
164	0x3dfbe176	0.12298863
165	0xbce99ef6	-0.028518181
166	0x3e22c394	0.1589492
167	0x3d58c32a	0.052920498
168	0xbe202250	-0.15638089
169	0x3cc2898a	0.023747224
170	0x3e047786	0.1293622
171	0x3ca230aa	0.019798595
172	0x3db0067d	0.085949875
173	0x3e6762ca	0.22596279
174	0x3e4e25aa	0.20131555
175	0x3e577109	0.21039213
176	0xbbc4fefe	-0.0060118428
177	0xbcca432b	-0.024690231
178	0xbe64b036	-0.22332844
179	0xbe461ccf	-0.19346927
180	0xbe4a11e4	-0.19733387
181	0x3d292a55	0.041300137
182	0xbe4d6b5a	-0.20060483
183	0x3df0ede9	0.11764128
184	0x3c017105	0.007900481
185	0x3e327693	0.17428045
186	0xbea247e9	-0.31695488
187	0x3dcdadcd	0.100429155
188	0x3e0bb9db	0.13645117
189	0xbe06353e	-0.13106248
190	0x3e393b1b	0.18088953
191	0x3d877c76	0.06615536
192	0xbdea3fd6	-0.11437957
193	0xbd532bc0	-0.051555395
194	0x3e2f0194	0.17090446
195	0xbd8b667a	-0.06806655
196	0xbdce4d1e	-0.10073303
197	0x3dc37c00	0.095451355
198	0x3dc00e0b	0.093776785
199	0xbdf452e5	-0.119298734
200	0xbda7a59a	-0.08185883
201	0xbe2da63d	-0.16957946
202	0x3d9c6a0b	0.076374136
203	0x3c86ad99	0.0164402
204	0x3d936284	0.07196525
205	0x3e20bc8a	0.15696922
206	0x3dfb8807	0.122818045
207	0x3d393d17	0.045224275
208	0xbd8864e4	-0.06659868
209	0x3d4c35ea	0.049856104
210	0xbde70727	-0.11280661
211	0xbdfc5e44	-0.12322667
212	0x3d806143	0.06268551
213	0x3d720869	0.05909005
214	0xbdfa010c	-0.12207231
215	0xbe1b9d54	-0.15196735
216	0x3dee13e1	0.11624885
217	0x3e9bdde4	0.30442727
218	0xbd96c371	-0.07361496
219	0x3daa4e4f	0.083157174
220	0xbe006bee	-0.12541172
221	0xb8f39095	-0.000116140734
222	0xbe818efd	-0.25304404
223	0xbbb5f192	-0.005552479
224	0xbac8d5ce	-0.0015322508
225	0x3e58f948	0.21188843
226	0x3ded45ad	0.11585555
227	0xbc7855cb	-0.015157173
228	0xbda27747	-0.079329066
229	0xbd86d70c	-0.06583986
230	0xbc11f603	-0.008908751
231	0xbdd69868	-0.10478288
232	0x3b3971ae	0.0028296518
233	0x3de027f5	0.10945121
234	0xbddb11cd	-0.106967546
235	0x3d024e5f	0.03181302
236	0x3e0da87b	0.13833801
237	0x3d7423d5	0.059604485
238	0xbe062c95	-0.13102944
239	0x3da7f881	0.08201695
240	0xbe302b1d	-0.17203946
241	0xbd311651	-0.043234173
242	0xbdd8042e	-0.10547672
243	0x3df7ba38	0.12096065
244	0x3e648080	0.22314644
245	0xbe0b7041	-0.1361704
246	0xbe27f650	-0.16402555
247	0xbe253106	-0.16131982
248	0x3f1f5518	0.6223922
249	0x3e087fbb	0.13329975
250	0x3dcf3ee2	0.10119416
251	0xbe0639c8	-0.1310798
252	0xbe1b9511	-0.15193583
253	0xbd873141	-0.06601191
254	0x3d8d04ea	0.06885703
255	0xbd73ea79	-0.059549782

conv1.bias f4 [31]
0	0x3c1a1e39	0.00940662
1	0x3e3a96ef	0.18221639
2	0xbe886b84	-0.26644528
3	0xbe1e95e5	-0.15486868
4	0x3cd58fca	0.02606954
5	0x3db75dc8	0.08953434
6	0xbdc189b0	-0.0945009
7	0x3d953ec4	0.07287362
8	0x3e30094b	0.17191045
9	0x3d4cdb23	0.050013673
10	0x3d980c14	0.07424179
11	0x3da2a1b4	0.07940999
12	0x3df45ce9	0.11931784
13	0xbdff64f2	-0.12470426
14	0x3d1fad60	0.038983703
15	0x3ddec54b	0.108774744
16	0x3e3cf7a2	0.1845384
17	0xbe8f812d	-0.2802824
18	0x3daffaaf	0.08592736
19	0xbd9e0f57	-0.077177696
20	0xbdf90fe2	-0.121612325
21	0x3c3633dc	0.011120763
22	0xbcd7539d	-0.026284987
23	0x3d0e5c31	0.03475589
24	0xbd73b1a5	-0.059495587
25	0xbe02d7c4	-0.1277762
26	0xbc253b6d	-0.010084969
27	0xbd3c3a97	-0.045954313
28	0x3dcccfba	0.10000558
29	0xbdef919b	-0.11697694
30	0x3e2e323a	0.17011347

bn1.weight f4 [31]
0	0x3f68459f	0.90731233
1	0x3f48103b	0.78149766
2	0x3f7d0a5d	0.9884394
3	0x3f81a212	1.0127585
4	0x3f59fd67	0.85152286
5	0x3f66b4a8	0.9011941
6	0x3f6dbe0a	0.928681
7	0x3f6d220c	0.92630076
8	0x3fca4f6e	1.580549
9	0x3f92e7df	1.1477011
10	0x3f92d5f6	1.1471546
11	0x3f6eca4c	0.9327743
12	0x3f8648e3	1.0490993
13	0x3f76d626	0.96420515
14	0x3f4ae006	0.7924808
15	0x3f536ff0	0.8259268
16	0x3f710bc1	0.9415856
17	0x3f90165d	1.1256825
18	0x3f752b91	0.957696
19	0x3f7c0452	0.9844409
20	0x3f4d7252	0.80252564
21	0x3f86fdab	1.0546163
22	0x3fa0c6b5	1.256064
23	0x3f368764	0.7130034
24	0x3f567353	0.8376972
25	0x3f42a6e5	0.7603591
26	0x3f44d29a	0.7688385
27	0x3f699a6f	0.9125127
28	0x3f6a1319	0.9143539
29	0x3f8e095b	1.1096605
30	0x3f850cde	1.0394552

bn1.bias f4 [31]
0	0xbd128e28	-0.035780102
1	0xbdc7d08d	-0.09756575
2	0xbd17c53a	-0.037053324
3	0xbd26752f	-0.0406391
4	0xbd1e0020	-0.038574338
5	0xbdb3ae1c	-0.08773443
6	0xbdad712b	-0.08468851
7	0xbd9a6a56	-0.07539813
8	0x3c523539	0.012830072
9	0xbc4a6f3a	-0.01235562
10	0x3df7c611	0.12098325
11	0xbd3b3bfc	-0.045711502
12	0xb9235fc0	-0.00015580561
13	0x3d03dacf	0.032191094
14	0x3d97c7e3	0.07411172
15	0xbdd71042	-0.10501148
16	0x3b5ae50f	0.003340069
17	0x3d87e8b8	0.066361845
18	0x3d81da1d	0.0634043
19	0xbe0a7ee3	-0.13524966
20	0xbde51ff6	-0.11187737
21	0xbcd60192	-0.026123796
22	0xbe0033eb	-0.12519805
23	0xbe07a666	-0.1324707
24	0xbdb932f6	-0.09042923
25	0xbddb8c02	-0.10720064
26	0xbe30c50c	-0.17262667
27	0xbd630634	-0.055425838
28	0xbda18f6e	-0.07888685
29	0x3cdc74c3	0.026911145
30	0xbd71193f	-0.058861967

bn1.running_mean f4 [31]
0	0x3c202e1e	0.00977662
1	0x3e3a16d6	0.18172774
2	0xbe884328	-0.26613736
3	0xbe1ff9fd	-0.15622707
4	0x3cd3218f	0.025772838
5	0x3db7cc82	0.08974554
6	0xbdc189a4	-0.09450081
7	0x3d961514	0.07328239
8	0x3e322d3b	0.17400067
9	0x3d4d59e1	0.050134543
10	0x3d969fd7	0.07354706
11	0x3da2c9de	0.07948659
12	0x3df56374	0.1198186
13	0xbdfe3cf5	-0.124139704
14	0x3d2030d2	0.03910906
15	0x3ddec35c	0.108771056
16	0x3e3d6685	0.1849614
17	0xbe9008b7	-0.2813165
18	0x3dafd3da	0.08585329
19	0xbd9c4941	-0.076311596
20	0xbdfa630d	-0.12225924
21	0x3c3e9319	0.0116317505
22	0xbcd04ceb	-0.025427302
23	0x3d118404	0.03552629
24	0xbd7093ff	-0.05873489
25	0xbe02e353	-0.1278203
26	0xbc283d55	-0.010268529
27	0xbd3e66f3	-0.0464849
28	0x3dcda0b3	0.100404166
29	0xbdedd6f9	-0.116132684
30	0x3e2ee3f9	0.17079152

bn1.running_var f4 [31]
0	0x3f7cbe82	0.9872819
1	0x3f989146	1.1919334
2	0x3eec68eb	0.46173796
3	0x3ee2fa45	0.44331565
4	0x40183de0	2.3787766
5	0x3fb3bcff	1.4042052
6	0x3fa19738	1.2624273
7	0x3eb0e860	0.34552288
8	0x3eed67df	0.4636831
9	0x3e9c09ca	0.30476218
10	0x3f048af1	0.5177451
11	0x3f9fc4b9	1.248191
12	0x3f4934d1	0.78596216
13	0x402c0558	2.6878262
14	0x3f893115	1.0718104
15	0x3faf4266	1.3692138
16	0x402434ae	2.5657153
17	0x3ecd635b	0.40114865
18	0x40985442	4.7602854
19	0x3ecda9e0	0.40168667
20	0x3f7a8bcd	0.9786957
21	0x3e90ade1	0.2825766
22	0x3e75a0a6	0.23987064
23	0x3f8deb4e	1.1087434
24	0x4021b046	2.5263839
25	0x3f1c2d03	0.6100618
26	0x40660fad	3.5947068
27	0x3ffc4983	1.9709934
28	0x3ea52166	0.32252043
29	0x3e99925c	0.29994476
30	0x3ef26a95	0.4734694

conv2.weight f4 [31, 1, 1, 31]
0	0xbdc30655	-0.09522692
1	0x3e0695ed	0.1314313
2	0x3d0753d9	0.033038948
3	0xba5452ff	-0.00080995256
4	0x3bc5fe70	0.006042294
5	0xbdfee936	-0.12446825
6	0x3e16a4d0	0.14711308
7	0xbdd8af94	-0.10580364
8	0x3dcce231	0.1000408
9	0x3d128168	0.035767943
10	0xbe66d67a	-0.22542754
11	0x3db844e7	0.08997517
12	0xbe5f6875	-0.21817191
13	0x3da1e168	0.07904321
14	0xbd243dae	-0.040097885
15	0x3c7e92fe	0.015537975
16	0xb8460c5a	-4.7218382e-05
17	0xbd5d3e3e	-0.054014437
18	0xbdbb71a8	-0.091525376
19	0x3e298c44	0.16557413
20	0xbe0f643c	-0.1400308
21	0xbed6680f	-0.41876265
22	0xbe0cd345	-0.13752468
23	0x3d017515	0.0316058
24	0x3d5ebd52	0.05437977
25	0xbe166b3a	-0.14689341
26	0x3d51c7a1	0.05121577
27	0x3dcab093	0.0989696
28	0xbd37afec	-0.044845507
29	0x3e60677f	0.2191448
30	0xbd8015c6	-0.06254153
31	0xbdb35648	-0.08756691
32	0xbe04f98f	-0.12985824
33	0x3c3851f6	0.01125001
34	0xbd95c92f	-0.07313763
35	0xbdf91fb6	-0.121642515
36	0x3def38d6	0.116807625
37	0xbe37e51c	-0.17958492
38	0x3d2c26e7	0.042029288
39	0xbe652b04	-0.2237969
40	0xbd912bae	-0.07088409
41	0xbd50441d	-0.050846208
42	0x3df661e6	0.120303914
43	0x3de65972	0.11247529
44	0x3db29e17	0.087215595
45	0x3c8813c9	0.016610997
46	0x3d636da3	0.05552448
47	0x3d8cb3cc	0.06870231
48	0x3e3e8f0f	0.1860926
49	0xbe507c51	-0.20359923
50	0x3e35dc58	0.17759836
51	0x3de66997	0.112506084
52	0x3e238264	0.15967709
53	0xbe05c21b	-0.13062327
54	0xbe2a3ce8	-0.16624796
55	0x3e0ec8c5	0.13943775
56	0xbe46d4ba	-0.19417086
57	0xbe36e246	-0.17859754
58	0xbd9f402e	-0.07775913
59	0x3da8aa1f	0.08235573
60	0xbe545725	-0.20736368
61	0xbde25280	-0.11050892
62	0x3da5cc7e	0.080956444
63	0xbe08f548	-0.13374817
64	0x3dc1e070	0.09466636
65	0x3e48e91f	0.19620179
66	0xbe064747	-0.13113128
67	0x3d4cd3e2	0.050006755
68	0xbd876ad6	-0.06612174
69	0x3e2271ef	0.15863775
70	0xbd660306	-0.056155227
71	0x3ddaae0b	0.10677727
72	0x3e91f06b	0.28503737
73	0xbbb82da7	-0.0056206766
74	0xbe9893ae	-0.2980017
75	0xbea09365	-0.31362453
76	0x3e486add	0.19572015
77	0x3c82ec65	0.015981862
78	0x3d94b8a3	0.07261779
79	0x3dd30af6	0.10304825
80	0x3dbde1bf	0.09271573
81	0xbe21c456	-0.15797552
82	0xbde51018	-0.1118471
83	0xbd924032	-0.071411505
84	0x3e47914c	0.1948902
85	0x3e7cde20	0.24694109
86	0x3dd3f3a8	0.10349208
87	0x3c80a3a1	0.015703024
88	0xbe1b55de	-0.15169474
89	0xbcda944d	-0.026682043
90	0xbdad5447	-0.0846334
91	0xbbccce8a	-0.0062502073
92	0xbb9fa809	-0.0048723263
93	0x3d8a203e	0.06744431
94	0xbf102a00	-0.56314087
95	0xbd8f3adc	-0.069936484
96	0x3b0ade7d	0.0021189742
97	0xbd8d851b	-0.069101535
98	0xbb1e36d9	-0.0024141578
99	0xbdc0abc1	-0.094077595
100	0x3e3e0b65	0.18559034
101	0xbe5caadc	-0.21549553
102	0x3dc0fa07	0.09422689
103	0x3e1bde5c	0.15221542
104	0xbdb3bd80	-0.08776379
105	0x3d66937e	0.056293003
106	0x3d63625d	0.05551373
107	0x3e6f305b	0.2335829
108	0x3de33019	0.11093158
109	0x3ddb7c9c	0.10717127
110	0x3d7649d8	0.060129017
111	0x3e0238bc	0.12716955
112	0x3d1035f4	0.035207704
113	0xbd1113bc	-0.03541921
114	0xbd87b838	-0.06626934
115	0x3d0cef2a	0.034407772
116	0x3c8c805a	0.017151047
117	0x3e0b7381	0.1361828
118	0xbd7163e8	-0.05893317
119	0x3dccadfc	0.099941224
120	0xbcd64b8e	-0.026159074
121	0xbe17dd14	-0.14830428
122	0x3de42a90	0.11140931
123	0xbca6945b	-0.020334413
124	0xbd3be26c	-0.04587023
125	0xbe502f1e	-0.20330474
126	0xbbcdb5cc	-0.0062777754
127	0xbe86ebf2	-0.26351887
128	0xbc90c808	-0.017673507
129	0x3e553ea2	0.20824674
130	0x3d85a845	0.065262355
131	0x3d465c11	0.048427645
132	0xbddde2fc	-0.108343095
133	0xbe397507	-0.18111049
134	0xbcadc02e	-0.021209802
135	0x3e243d06	0.16038904
136	0xbe7cfda6	-0.24706134
137	0x3dfa3b34	0.12218323
138	0xbe139d25	-0.14415415
139	0x3cfe4f97	0.03104381
140	0x3e49a9a6	0.19693622
141	0x3b7a8c0e	0.0038230452
142	0x3e07beec	0.13256425
143	0x3e5a8b80	0.21342278
144	0xbce39d4a	-0.027784962
145	0xbd8e5e32	-0.0695156
146	0xbea7830e	-0.32717174
147	0xbdf2038b	-0.11817082
148	0xbc47d3f3	-0.012196529
149	0x3dbeedfa	0.09322734
150	0x3d2e01ba	0.042482115
151	0xbdb63f30	-0.08898771
152	0xbd8bb92f	-0.0682243
153	0xbe671a42	-0.2256861
154	0x3ca655f4	0.020304658
155	0xbd031fa4	-0.032012597
156	0xbb2460b3	-0.0025082051
157	0xbe0a09e1	-0.13480331
158	0xbe490009	-0.1962892
159	0x3d8df444	0.069313556
160	0xbd4671a4	-0.04844822
161	0x3dfc5c38	0.12322277
162	0xba1fac4c	-0.0006091043
163	0xbd8b7eaf	-0.06811272
164	0x3e23b13f	0.15985583
165	0xbe7142c0	-0.2356062
166	0x3d214b78	0.039378613
167	0x3e67d7fe	0.22640988
168	0x3e24534f	0.16047405
169	0x3e2a8635	0.16652758
170	0xbd0dfde0	-0.034665942
171	0xbe1f833a	-0.15577403
172	0xbe9e7f68	-0.30956578
173	0xbd027755	-0.031852085
174	0x3e3b6bdb	0.18302862
175	0x3ca3a300	0.019975185
176	0xbdba6197	-0.09100645
177	0xbdaef7ea	-0.085433796
178	0xbdb366c3	-0.087598346
179	0x3d69345c	0.0569347
180	0x3dbc0146	0.091799304
181	0x3cd2251d	0.025652463
182	0x3d9a6f2b	0.07540735
183	0xbed98fb3	-0.42492446
184	0xbe79f2f2	-0.24409083
185	0x3de82ff2	0.1133727
186	0xbe8cb56d	-0.27482167
187	0x39656020	0.00021874951
188	0xbe09a46b	-0.13441627
189	0xbe0162cf	-0.12635349
190	0x3d87229c	0.06598398
191	0xbe099d52	-0.13438919
192	0x3dd8c009	0.10583503
193	0x3e282b43	0.16422753
194	0xbd1cdb99	-0.038295362
195	0x3dfaf450	0.1225363
196	0x3e5d98ab	0.2164027
197	0xbcbe6eed	-0.023246253
198	0xbe09be04	-0.13451391
199	0xbbee95ce	-0.0072810417
200	0xbe1c04e9	-0.15236248
201	0x3e17dcea	0.14830366
202	0x3d84e684	0.0648928
203	0xbe40389e	-0.18771598
204	0x3cae956e	0.021311488
205	0xbdde7029	-0.108612366
206	0x3d12c4ab	0.03583209
207	0xbe30a98c	-0.17252177
208	0xbe0542b1	-0.13013722
209	0x3ce9e522	0.028551642
210	0xbeb62086	-0.35571688
211	0x3e1d5245	0.15363415
212	0x3dd5a574	0.10431948
213	0x3d737612	0.059438772
214	0x3ea5f008	0.32409692
215	0xbdc04dda	-0.09389849
216	0xbe2379d9	-0.1596445
217	0xbcf466de	-0.029834207
218	0x3d98b32e	0.07456051
219	0x3db245b7	0.08704703
220	0x3e1480bd	0.14502235
221	0x3cc43d60	0.023955047
222	0xbe9a500d	-0.301392
223	0xbcb16956	-0.021656673
224	0x3e2890f5	0.16461547
225	0xbe8fb860	-0.28070354
226	0xbe8aed53	-0.2713419
227	0x3b911811	0.004427918
228	0x3da5c492	0.080941334
229	0x3e008747	0.12551604
230	0x3d44381c	0.047905073
231	0x3e3283f9	0.17433156
232	0xbced225f	-0.028947053
233	0x3c365066	0.011127567
234	0xbe35a980	-0.1774044
235	0xbe20fcba	-0.15721408
236	0xbe010b50	-0.12601972
237	0x3d9c5229	0.07632858
238	0x3e1fd2af	0.15607713
239	0xbdaad4d4	-0.08341375
240	0xbdac1135	-0.084017195
241	0xbee3ca5f	-0.44490334
242	0xbe499317	-0.19685017
243	0x3cbe48af	0.023228018
244	0xbe02f3a6	-0.12788257
245	0x3dfde911	0.123979695
246	0xbde58245	-0.112064876
247	0xbba435c3	-0.0050112917
248	0xbe8d5c0a	-0.27609283
249	0xbe1cfb7c	-0.15330309
250	0x3de60d83	0.11233046
251	0x3d6ed533	0.05830879
252	0x3e24010b	0.16016023
253	0x3d8702e9	0.06592352
254	0x3e1e154b	0.1543781
255	0x3d64d2ee	0.05586522

conv2.bias f4 [31]
0	0xbca40e7d	-0.02002644
1	0xbd74b383	-0.05974151
2	0xbe11799f	-0.14206551
3	0x3e27e535	0.1639603
4	0xbc6f386a	-0.0146008525
5	0xbdba001d	-0.09082053
6	0x3e1baa71	0.15201737
7	0x3e0788be	0.13235757
8	0xbd0ef668	-0.03490296
9	0xbdd56b30	-0.10420835
10	0x3db45102	0.088045135
11	0xbca83bfe	-0.020536419
12	0xbdacebe0	-0.08443427
13	0xbe0e216e	-0.1387994
14	0xbd69d417	-0.05708703
15	0xbe19f8f9	-0.15036382
16	0xbd02a2c9	-0.031893525
17	0xbe51f9f4	-0.20505506
18	0xbd5a0090	-0.053223193
19	0xbbb80d6d	-0.005616835
20	0xbde7675d	-0.11299012
21	0x3cf28324	0.029603548
22	0xbe2cff82	-0.16894343
23	0x3d955607	0.07291799
24	0x3e4e613f	0.20154284
25	0x3d0871aa	0.033311523
26	0xbdf12363	-0.117743276
27	0xbd57486b	-0.052559298
28	0xbc7f81d2	-0.015594916
29	0x3d17d702	0.03707028
30	0x3ce13306	0.02749015

bn2.weight f4 [31]
0	0x3fa384e0	1.2774925
1	0x3f4884fa	0.78327906
2	0x3f823886	1.01735
3	0x3f9750a7	1.1821488
4	0x3f829c17	1.0203885
5	0x3f838abd	1.0276715
6	0x3f8cd4c6	1.1002433
7	0x3f6783bd	0.9043539
8	0x3f7067a3	0.9390814
9	0x3f7ec6eb	0.99522275
10	0x3f957924	1.1677594
11	0x3f584491	0.84479624
12	0x3f765544	0.96223855
13	0x3fb2d6fa	1.3971856
14	0x3f892b1a	1.0716279
15	0x3f94ebf0	1.1634502
16	0x3f6497c4	0.89294076
17	0x3f63c00e	0.8896493
18	0x3f523840	0.8211708
19	0x3f92a3d9	1.1456252
20	0x3f2d3db1	0.6767226
21	0x3f9a4901	1.2053529
22	0x3f94b1bc	1.161674
23	0x3f2f19ad	0.68398553
24	0x3f40dde9	0.7533861
25	0x3f97fb33	1.1873535
26	0x3f8b1c0e	1.0867937
27	0x3f91fe1f	1.1405677
28	0x3f56ef42	0.8395883
29	0x3f75e055	0.9604543
30	0x3f3ac155	0.7295125

bn2.bias f4 [31]
0	0x3ee0db9f	0.43917558
1	0xbf1b9ba9	-0.60784394
2	0xbebb8d2b	-0.3663114
3	0x3da914da	0.0825593
4	0x3e020e3a	0.1270074
5	0x3e410b8d	0.18852063
6	0xbe7f1a63	-0.2491241
7	0x3e2a9b64	0.1666084
8	0xbe56b30c	-0.20966738
9	0xbe330f7c	-0.17486376
10	0xbe3450a6	-0.1760889
11	0xbd74a2fb	-0.059725743
12	0xbe7b11dc	-0.24518532
13	0x3dcebb67	0.10094338
14	0x3e201d70	0.1563623
15	0xbd90591c	-0.07048246
16	0xbe38120f	-0.17975639
17	0xbe2398b2	-0.15976217
18	0xbe14b612	-0.1452258
19	0xbe813b79	-0.25240687
20	0xbecc7865	-0.39935604
21	0xbe0469c5	-0.12930973
22	0xbe92e615	-0.28691164
23	0xbef4d48c	-0.4781841
24	0xbeb1c0f2	-0.34717518
25	0xbe85cb77	-0.26131794
26	0xbe4ddadb	-0.20103018
27	0xbe17c9e9	-0.14823116
28	0xbe99b38f	-0.30019805
29	0xbd93031d	-0.07178328
30	0xbf04db64	-0.51897264

bn2.running_mean f4 [31]
0	0xbd27fccf	-0.04101258
1	0xbef519ac	-0.4787115
2	0x3b7219d8	0.0036941674
3	0x3e87d9f6	0.26533478
4	0xbe71b8a1	-0.23605587
5	0xbe224f8f	-0.15850662
6	0x3e005166	0.12531051
7	0xbe28cc62	-0.16484216
8	0xbcfc5407	-0.030801786
9	0xbec5aa1e	-0.38606352
10	0x3dd7c67b	0.10535904
11	0xbeacd02e	-0.33752578
12	0xbd88674e	-0.06660329
13	0xbf16dcfb	-0.5893094
14	0xbf03f127	-0.51539844
15	0x3ce1a202	0.027543072
16	0x3dbed993	0.09318843
17	0xbea4d70e	-0.32195324
18	0x3e834194	0.2563597
19	0xbd9bd749	-0.07609422
20	0xbecac886	-0.39606112
21	0x3ebb4aba	0.3658045
22	0xbeaa0795	-0.3320891
23	0x3d28c7eb	0.04120628
24	0xbd1b7c0e	-0.037960105
25	0xbe741e1d	-0.23839612
26	0xbde919da	-0.11381884
27	0x3d2f558d	0.042806197
28	0xbca9b368	-0.02071543
29	0x3dca4326	0.09876089
30	0xbeb8567f	-0.3600349

bn2.running_var f4 [31]
0	0x3e6e8c29	0.23295654
1	0x3e547766	0.20748672
2	0x3e8e8d3f	0.27842137
3	0x3e7564fa	0.23964301
4	0x3e2de971	0.16983582
5	0x3e97b8fb	0.29633316
6	0x3e1dcea6	0.15410861
7	0x3e9c4a61	0.30525497
8	0x3ddbd83a	0.10734601
9	0x3e3405d2	0.17580345
10	0x3df7dffc	0.121032685
11	0x3e9295bd	0.28629866
12	0x3dc406f7	0.09571641
13	0x3db5ce72	0.08877267
14	0x3e827796	0.25481862
15	0x3e2919fe	0.16513821
16	0x3dc5f53a	0.09665914
17	0x3e48e53b	0.19618694
18	0x3e20c24b	0.15699117
19	0x3e1f44fb	0.15553658
20	0x3eac4d23	0.336526
21	0x3e4a40a5	0.19751222
22	0x3dccdd1e	0.10003112
23	0x3e52c324	0.20582253
24	0x3eb3bb40	0.35103798
25	0x3e1751ae	0.14777252
26	0x3e4b6247	0.19861709
27	0x3e07d5c7	0.13265143
28	0x3e50498e	0.20340559
29	0x3e4592fd	0.19294353
30	0x3eb1b9a0	0.34711933

fc1.weight f4 [128, 314]
0	0x3bee3472	0.0072694356
1	0x3ca1d204	0.019753464
2	0x3d45f24c	0.048326775
3	0xbcfbe49c	-0.030748658
4	0xbd839b5e	-0.06426118
5	0x3d989281	0.074498184
6	0xbc758b2a	-0.014986793
7	0xbd7e876e	-0.062140875
8	0xbda59e14	-0.08086792
9	0xbd1a397a	-0.03765247
10	0xbd24afd8	-0.04020676
11	0x3cfb029d	0.030640895
12	0x3d405b06	0.046961807
13	0xbc196ba8	-0.009364046
14	0xbd07a74a	-0.033118524
15	0x3c1e3a62	0.009657474
16	0x3d2e27b1	0.04251832
17	0xbd7b1d1a	-0.06130705
18	0xbd7e1a4f	-0.06203681
19	0xbc4d3878	-0.01252567
20	0xbdd75aa3	-0.105153345
21	0xbd7a0df7	-0.061048474
22	0x3d962ed1	0.07333148
23	0xbd326e0f	-0.04356199
24	0xbd193910	-0.037407935
25	0xbda8bbe0	-0.08238959
26	0x3cde5dbe	0.02714431
27	0x3c0ed97c	0.0087188445
28	0xbb91edc5	-0.004453393
29	0xbd6f071a	-0.058356382
30	0x3d5b877c	0.053596005
31	0xbdc159e8	-0.094409764
32	0x3df26141	0.11834956
33	0xbdce7dcb	-0.10082587
34	0xbd2377d5	-0.039909203
35	0xbd8fef0f	-0.07028019
36	0xbd0f5c15	-0.034999926
37	0xbd8034e2	-0.062600866
38	0xbd4f6d37	-0.050641265
39	0x3d7ccaf7	0.061717
40	0x3b5637dc	0.0032687103
41	0xbd87ea85	-0.06636528
42	0xbc52402d	-0.0128326835
43	0xbe01515b	-0.12628691
44	0x3cf99359	0.030465769
45	0x3e0fbbaf	0.1403644
46	0xbd14a1d2	-0.036287136
47	0xbe4b8cc5	-0.19877918
48	0x3d47af2e	0.04875105
49	0x3c9b4d6a	0.018957812
50	0xbe46ff9d	-0.19433446
51	0xb95a6748	-0.00020828575
52	0xbd80c0c7	-0.06286769
53	0x3dc27f74	0.09496966
54	0xbd46b56d	-0.048512865
55	0xbd7455f0	-0.05965227
56	0x3c6fd3be	0.014637886
57	0xbd2fa25a	-0.04287944
58	0x3cfb89f7	0.030705435
59	0x3cde2e39	0.02712165
60	0xbd434d20	-0.047680974
61	0x3df5fe9c	0.120114535
62	0x3cfcccf2	0.030859444
63	0xbe15b3aa	-0.14619318
64	0x3afc19c1	0.001923375
65	0xbbce8710	-0.006302722
66	0x3cf317bf	0.029674409
67	0xbd245366	-0.040118597
68	0x3db48b42	0.08815624
69	0xbdb2b23b	-0.08725401
70	0x3cbf54ad	0.023355806
71	0xbda52775	-0.080641665
72	0xbe768f4c	-0.24078101
73	0x3a1ed4aa	0.0006058911
74	0xbd5c3317	-0.05375966
75	0x3e2baf47	0.16766082
76	0xbc38f1fc	-0.011288162
77	0x3c8a6fff	0.016899107
78	0x3d9ad610	0.075603604
79	0xbdb70b3c	-0.0893769
80	0x3de1677e	0.11006068
81	0x3a986ebf	0.0011629685
82	0x3d15458f	0.03644329
83	0xbdf8cdc8	-0.12148625
84	0x3cd4ee77	0.025992615
85	0x3d9caf3a	0.07650609
86	0xbe085ba3	-0.13316207
87	0xbcdb052b	-0.026735863
88	0x3d98efd3	0.07467618
89	0xbe2e1bdf	-0.1700282
90	0xbe07fcd2	-0.13280037
91	0xbda9e4f3	-0.08295622
92	0xbdd9272c	-0.106031746
93	0x3bb85523	0.0056253835
94	0x3e4a0a21	0.19730426
95	0x3d29f7cb	0.04149608
96	0x3db6bcd2	0.08922733
97	0x3c45ae9e	0.012065558
98	0x3c6b2c47	0.014353818
99	0x3c5b09f0	0.0133690685
100	0xbbce9b06	-0.0063051013
101	0xbdc0044e	-0.09375821
102	0x3d8e8ca6	0.0696042
103	0x3d8a0e6e	0.067410335
104	0xbd155f11	-0.036467616
105	0x3e066cda	0.13127461
106	0x3b3c3b60	0.0028721914
107	0xbc9fc645	-0.019503722
108	0x3dd5a74d	0.10432301
109	0x3d63fcb1	0.055660907
110	0x3dc6831d	0.096929766
111	0x3b850ffb	0.004060743
112	0xbcaaa97d	-0.020832771
113	0xbdc0498d	-0.09389029
114	0xbceb709a	-0.028740216
115	0xbcafd027	-0.02146156
116	0xbd7e4efd	-0.062087048
117	0x3e140d55	0.14458211
118	0xbbbc199d	-0.005740358
119	0xbd6e61e1	-0.058198813
120	0x3d1098a0	0.035301805
121	0xbb9b8b84	-0.004746856
122	0xbe45a9ab	-0.19303004
123	0xbe378aa3	-0.1792398
124	0xbdb89f96	-0.090148136
125	0x3cb80e4f	0.02246776
126	0xbd8c81c8	-0.06860691
127	0xbdd10c8e	-0.10207473
128	0x3b273ea1	0.0025519507
129	0xbd103524	-0.03520693
130	0xbd1a145e	-0.03761708
131	0x3d918788	0.07105929
132	0x3bb3a4e6	0.005482304
133	0xbc4efd52	-0.012633638
134	0x3d19f753	0.037589382
135	0x3d937712	0.07200445
136	0x3bb03042	0.0053768465
137	0xbd6d0369	-0.05786458
138	0xbdc8c42e	-0.09803043
139	0xbd85cdde	-0.06533407
140	0x3cfa59b6	0.030560356
141	0x3c69a6f6	0.014260998
142	0x3df6d3af	0.12052094
143	0x3cde0e11	0.027106317
144	0x3d3afae6	0.04564943
145	0x3d821470	0.063515544
146	0x3d3f3ff0	0.046691835
147	0xbca6949a	-0.02033453
148	0xbcbb9c09	-0.022901552
149	0xbdae47bc	-0.08509776
150	0x3dbb5525	0.091470994
151	0x3bcd9ab1	0.006274544
152	0xbe087182	-0.1332455
153	0xbcbbbe61	-0.022917928
154	0x3de1fb23	0.11034229
155	0xbe264ced	-0.16240282
156	0x3c90ce7d	0.017676586
157	0x3d9384ad	0.0720304
158	0x3ceed390	0.029153615
159	0x3d2dfd61	0.04247797
160	0xbc8dcb60	-0.01730889
161	0xbde62092	-0.11236681
162	0xbd71b71d	-0.05901252
163	0xbd5e2c1d	-0.05424129
164	0x3c8fa1e3	0.017533248
165	0xbccf6a6f	-0.025319306
166	0x3debfa35	0.115223326
167	0xbdb45229	-0.08804733
168	0x3c673249	0.01411111
169	0x3c90e9c3	0.017689591
170	0xbd7c0949	-0.061532293
171	0x3ba28b7a	0.0049604746
172	0xbd79f1a0	-0.061021447
173	0xbc3fbf38	-0.011703305
174	0xbd28cfc5	-0.04121377
175	0xbd078708	-0.03308776
176	0x3e0daa8d	0.13834591
177	0xbe042185	-0.12903412
178	0x3df9f476	0.1220483
179	0x3be4ab13	0.0069784014
180	0xbd9ad13f	-0.07559442
181	0x3e576867	0.2103592
182	0x3d0ede86	0.034880184
183	0xbd6cc456	-0.057804428
184	0x3d18b959	0.037286136
185	0x3cc08062	0.023498718
186	0x3dd708a5	0.10499696
187	0xbddc66c7	-0.10761791
188	0xbd50fd25	-0.051022667
189	0xbc20f124	-0.009823117
190	0x3dbdc214	0.09265533
191	0xbdaa09a7	-0.08302622
192	0xbcf5a46d	-0.02998563
193	0x3d8780d4	0.06616369
194	0x3c915e7a	0.017745245
195	0x3da36d6d	0.07979856
196	0xbd9cd812	-0.076584
197	0x3c1a515b	0.009418811
198	0xbd89cb0d	-0.06728182
199	0x3d424f8f	0.047439154
200	0x3d807bbc	0.062736005
201	0x3bd9b12f	0.0066434364
202	0xbd7b1664	-0.06130065
203	0x3ba0daea	0.004908909
204	0xbcdcc0ee	-0.026947465
205	0x3dcf281a	0.10115071
206	0xbc7b812e	-0.015350623
207	0xbdf870d6	-0.12130897
208	0x3daf3d13	0.08556571
209	0xbcba2bdf	-0.022725997
210	0x3d7fd967	0.06246319
211	0xbd6af65c	-0.057363853
212	0xbd4f95e7	-0.050680067
213	0x3db68c57	0.089134865
214	0xbcd775e5	-0.026301334
215	0x3cb23b5e	0.021756824
216	0x3da46a0f	0.080280416
217	0xbd2d7f3a	-0.04235766
218	0x3d1b58dd	0.037926544
219	0xbe306a42	-0.17228034
220	0x3d900a8e	0.07033263
221	0xbc3bfd7e	-0.0114740115
222	0x3ddedc52	0.108818665
223	0xbd8df1ed	-0.06930909
224	0xba3ab134	-0.0007121742
225	0x3d92a040	0.071594715
226	0x3ddc62b0	0.10761011
227	0x3dc27da0	0.09496617
228	0xbd0d1e3b	-0.03445266
229	0xbdb8ccd7	-0.09023445
230	0x3d635bca	0.05550746
231	0xbcbfdb95	-0.023420135
232	0x3d44cccb	0.04804687
233	0xbdd66ee9	-0.10470373
234	0x3db217e7	0.08695965
235	0x3c75cf9f	0.015003114
236	0x3d0c017e	0.03418111
237	0x3ce866cf	0.028369335
238	0x3d97a1ba	0.07403894
239	0x3d022b66	0.03177967
240	0xbe17b942	-0.14816764
241	0x3d8e3d5f	0.06945299
242	0x3e018257	0.12647377
243	0x3d6c270a	0.057654418
244	0xbdf8982f	-0.12138402
245	0xbd9903e9	-0.07471449
246	0x3dca7804	0.098861724
247	0xbe0e8823	-0.1391912
248	0x3bea73f2	0.007154935
249	0x3c2c1d63	0.010505053
250	0x3d6b23ed	0.05740731
251	0xbd050b59	-0.032481525
252	0x3c15e10a	0.009147892
253	0x3e0e5817	0.13900791
254	0x3d378cef	0.04481214
255	0x3d9bf593	0.07615199

fc1.bias f4 [128]
0	0x3d055b0e	0.03255754
1	0x3d6d7a9d	0.05797826
2	0xbd41eea7	-0.047346737
3	0xbcdd8d8e	-0.027045038
4	0x3d547318	0.051867574
5	0xbccde2df	-0.025132595
6	0xbcc3e965	-0.023915002
7	0x3d0b55de	0.034017436
8	0xbd0e3cdf	-0.03472602
9	0x3be84e20	0.0070893914
10	0x3cb56bd6	0.022146147
11	0xbd56d5d6	-0.052450024
12	0xbd2fe765	-0.042945284
13	0xbc9c1332	-0.019052122
14	0x3d67e9b8	0.056619376
15	0xbce61695	-0.02808694
16	0xbd8712c9	-0.0659538
17	0xbd604733	-0.0547554
18	0x3d0044bf	0.03131556
19	0xbb8d50e9	-0.0043126238
20	0x3cd7f61a	0.026362468
21	0x3c42a7c0	0.011880815
22	0x3cc87aa7	0.024472548
23	0xbcf59eff	-0.029983042
24	0x3b38c93d	0.002819612
25	0xbd06a890	-0.032875597
26	0xbcdb678b	-0.026782772
27	0xbcf87f94	-0.030334271
28	0x3caeaa91	0.021321567
29	0x3c146417	0.009057066
30	0xbc99f180	-0.018791914
31	0xbcd239fa	-0.025662411
32	0xbcd8a540	-0.026445985
33	0xbc0b2bbd	-0.008494315
34	0xbc935e9a	-0.017989445
35	0x3c110bae	0.008852882
36	0xbd68abdf	-0.056804534
37	0xbd37a7e4	-0.044837847
38	0xbcc7b980	-0.024380445
39	0xb9c439c2	-0.00037427066
40	0xbc6a6dd8	-0.014308415
41	0x3d66d259	0.056352947
42	0xbd427662	-0.04747618
43	0x3b0f91c4	0.0021906951
44	0xbd855074	-0.06509486
45	0xbc535ee3	-0.012901041
46	0xbbf7ca84	-0.0075619835
47	0xbd6fe98c	-0.058572337
48	0x3d10cb87	0.03535035
49	0xbd1a5a14	-0.03768356
50	0xbcdd9779	-0.027049767
51	0xbd08e647	-0.033422735
52	0xbd3f4495	-0.046696264
53	0xbc77be81	-0.015121103
54	0xbd42a80a	-0.047523536
55	0xbbac65ba	-0.00526115
56	0x3cbda1e8	0.023148492
57	0x3cda3a32	0.026639078
58	0xbc07e1fa	-0.008293623
59	0xba201708	-0.00061069475
60	0x3cc357d3	0.023845589
61	0x3cc91d0d	0.024549985
62	0x3d2d5ba6	0.04232373
63	0xbd25bfdd	-0.04046618
64	0xbd1285dd	-0.035772193
65	0x3d506b29	0.050883446
66	0xbce16397	-0.027513308
67	0x3d2168ab	0.03940646
68	0xbd689ff4	-0.05679317
69	0x3cb43150	0.02199617
70	0xbd38a516	-0.045079313
71	0x3d4551ed	0.048173834
72	0xbd050c3c	-0.03248237
73	0x3ce8494b	0.028355261
74	0x3d29659c	0.041356668
75	0x3c9dd089	0.019264476
76	0xbd3d06b7	-0.046148982
77	0xbd39e6ff	-0.04538631
78	0x3d034516	0.032048307
79	0xbaab79a4	-0.0013082516
80	0xbc168c44	-0.009188715
81	0x3d00f27d	0.031481255
82	0xbd5a86a0	-0.053351045
83	0xbc4667e9	-0.012109735
84	0x3d39a303	0.045321476
85	0xbc2df9b1	-0.010618613
86	0x3d1ea9e7	0.03873625
87	0x3c6df8b2	0.014524626
88	0x3b9665da	0.0045897784
89	0xbd021b8c	-0.031764552
90	0x3d4a0ead	0.049330402
91	0x3bb90734	0.0056466106
92	0xbd83eb42	-0.06441356
93	0xbcc9ac25	-0.024618218
94	0xbd5bbee5	-0.053648848
95	0xbc5986c6	-0.013276761
96	0x3d00e3ad	0.03146713
97	0xbd08e411	-0.033420626
98	0x3aba5188	0.0014214972
99	0xbd0c813d	-0.03430294
100	0x3ca1dbc0	0.019758105
101	0x3c90d810	0.017681152
102	0x3d262447	0.04056194
103	0x3d418f9d	0.0472561
104	0x3d1c6319	0.038180444
105	0xbd179213	-0.03700454
106	0x3d1a3653	0.037649464
107	0xbc002c80	-0.00782311
108	0x3d126460	0.035740256
109	0x3d24e216	0.040254675
110	0x3cd4d8bc	0.025982253
111	0x3cb86cdd	0.022512848
112	0x3d617a10	0.05504805
113	0x3ca4158d	0.020029807
114	0x3d03999c	0.032128915
115	0x3cea8be5	0.02863116
116	0x3d4177da	0.04723344
117	0xbd13ab33	-0.03605194
118	0xbce81aa4	-0.028333016
119	0xbd026c35	-0.031841476
120	0x3d41523b	0.04719756
121	0xbc878bba	-0.016546119
122	0xbd3f1a9e	-0.046656244
123	0xbd26a125	-0.040681023
124	0xbd012c04	-0.031536117
125	0xbd61f8b6	-0.05516883
126	0x3d1c4073	0.0381474
127	0x3cfaa3af	0.030595629

fc2.weight f4 [1, 128]
0	0x3d40f6e0	0.04711044
1	0x3c990bc9	0.018682377
2	0x3ca8cfda	0.020606924
3	0xbc89e61f	-0.016833363
4	0x3c8d8f7a	0.017280329
5	0x3d05635a	0.032565452
6	0x3c5a480c	0.013322841
7	0xbce4f473	-0.027948594
8	0xbd833b2f	-0.06407773
9	0xbd75aebd	-0.059981097
10	0xbdae74b7	-0.08518355
11	0xbd0c0e21	-0.034193162
12	0xbd06dc19	-0.032924745
13	0xbd85bb0e	-0.065298185
14	0x3ccd4a6c	0.025059901
15	0x3d043bcf	0.0322836
16	0xbd278979	-0.04090259
17	0xbd36c804	-0.044624344
18	0x3d0d11bd	0.034440745
19	0x3cb41656	0.021983307
20	0x3ca76e79	0.02043842
21	0xbd39942a	-0.045307316
22	0xbd263e19	-0.040586565
23	0xbcd0bb09	-0.02547981
24	0x3cfa5460	0.030557811
25	0xbd179ad8	-0.037012905
26	0xbd117e16	-0.035520636
27	0x3cfe14e2	0.031015817
28	0xbcbc1406	-0.022958767
29	0x3d026600	0.031835556
30	0x3d14950b	0.03627495
31	0x3cbbfa7d	0.02294659
32	0xbc9abe27	-0.0188895
33	0xbcc481fd	-0.023987764
34	0xbc8a0eb7	-0.01685272
35	0xbd349436	-0.044086657
36	0xbd90c5be	-0.07068966
37	0x3d39b111	0.04533488
38	0xbd5c69b4	-0.053811744
39	0x3c197062	0.009365173
40	0xbce78a9b	-0.028264334
41	0xbd50713b	-0.050889235
42	0x3ce14b66	0.027501773
43	0xbdbdac1c	-0.09261343
44	0xbcf4ea67	-0.029896928
45	0xbda1123a	-0.078648046
46	0x3cbc4b49	0.022985118
47	0x3d3f779b	0.046744924
48	0x3cbe148d	0.023203159
49	0xbcff55aa	-0.031168777
50	0x3cf8093b	0.030277839
51	0xbd0c1caa	-0.034207024
52	0xbd9d62ea	-0.07684882
53	0x3cad5228	0.02115734
54	0x3d08de0e	0.033414893
55	0x3cc19131	0.023628803
56	0xbced8e01	-0.028998377
57	0xbca8d147	-0.020607604
58	0xbd224e36	-0.03962537
59	0xbc31a792	-0.0108431745
60	0xbd4e7825	-0.050407548
61	0x3cff5cc5	0.031172166
62	0xbd006588	-0.031346828
63	0xbce99ded	-0.028517688
64	0x3d2d3626	0.042287968
65	0x3ca037d2	0.019557867
66	0xbd042b07	-0.032267597
67	0xbc84b51b	-0.016199639
68	0xbcee6f11	-0.029105695
69	0x3c89002e	0.016723718
70	0xbcad7ca4	-0.021177597
71	0x3c972f02	0.018455032
72	0xbcdeec4a	-0.02721228
73	0x3ce91fea	0.0284576
74	0x3cf78ce0	0.030218542
75	0x3cbbd823	0.02293021
76	0xbd148796	-0.036262117
77	0x3c3160ba	0.010826284
78	0xbdf3c1d8	-0.11902207
79	0x3d1b0569	0.037846956
80	0xbd67489d	-0.056465734
81	0xbd895fbe	-0.067077145
82	0x3d066599	0.032811735
83	0x3ce02f71	0.027366372
84	0xbd01af54	-0.031661347
85	0xbd38ad44	-0.045087114
86	0x3cdc3a92	0.026883397
87	0x3cbdef0f	0.023185281
88	0x3cc9f6cd	0.024653817
89	0x3c837979	0.016049134
90	0xbd562b5a	-0.052287437
91	0x3cb6e58c	0.022326253
92	0xbd15339a	-0.036426164
93	0x3c9192f2	0.017770264
94	0xbd98d443	-0.07462361
95	0xbd1da921	-0.038491372
96	0xbd1fd17d	-0.039018143
97	0xbd1e6b22	-0.03867639
98	0xbd1ae848	-0.037819177
99	0x3cb7b775	0.022426346
100	0xbcb17e13	-0.021666562
101	0x3cf14c84	0.02945543
102	0xbd062702	-0.032752044
103	0x3d04574d	0.03230982
104	0xbd6fdb16	-0.058558546
105	0x3ce58ea7	0.028022124
106	0xbd2d58c7	-0.042320993
107	0x3d10234a	0.035189904
108	0xbd0fdc55	-0.035122234
109	0xbcf37edf	-0.029723583
110	0x3c9fbf5d	0.019500429
111	0xbd63c657	-0.055609073
112	0x3cc9dba6	0.02464087
113	0xbd3c8ef7	-0.04603478
114	0x3cf2bd72	0.02963135
115	0xbd58705f	-0.05284154
116	0x3c332e25	0.010936295
117	0xbce9a451	-0.028520735
118	0x3d0a9804	0.03383638
119	0x3d0ed366	0.034869574
120	0x3cbc9aa4	0.023022957
121	0x3d1b686a	0.037941374
122	0x3d0edc46	0.034878038
123	0xbd0fc9bd	-0.035104502
124	0x3c943f29	0.018096523
125	0xbd1e323f	-0.038622137
126	0xbc2f1c51	-0.0106879035
127	0x3c8fd60d	0.017558122
